src/ckpts/TakuNet_AIDER.ckpt (torch, 630018 bytes, 488 tensors)

backbone.0.stem.0.weight f4 [40, 3, 3, 3]
0	0xbe0a4a04	-0.13504797
1	0xbe289e49	-0.16466631
2	0xbd9b54f9	-0.075845666
3	0xbfa3c54c	-1.2794585
4	0xbf686097	-0.90772384
5	0xbe9fa5f4	-0.311813
6	0xbe2a6896	-0.16641459
7	0xbdaeb22a	-0.08530076
8	0xbd4d4c3e	-0.05012154
9	0xbd42cb28	-0.047557026
10	0xbe222139	-0.15832986
11	0x3dae8288	0.085209906
12	0xbf1b4f24	-0.60667634
13	0xbf211da9	-0.6293588
14	0x3e3810d8	0.17975175
15	0x3e09a0a9	0.13440193
16	0x3db51a6b	0.088429295
17	0x3e88928e	0.26674312
18	0x3ea8c43a	0.3296221
19	0xbc8eacb3	-0.017416334
20	0x3ec6325c	0.38710296
21	0xbe2f0d56	-0.17094931
22	0xbc657e3c	-0.014007147
23	0x3ec4051c	0.38285148
24	0x3ed48359	0.4150646
25	0x3f355b41	0.7084237
26	0x3f1ca453	0.6118824
27	0x3f1f8733	0.6231567
28	0x3e148a80	0.14505959
29	0xbe949078	-0.2901647
30	0x3f059f2b	0.52195996
31	0xbd158004	-0.03649904
32	0x3ebbb1c8	0.36659074
33	0x3ef223c9	0.47292927
34	0x3f057d66	0.5214447
35	0x3e85ed6b	0.26157698
36	0x3e89ef5e	0.26940435
37	0xbeb0a1dd	-0.34498492
38	0xbf19a5cd	-0.60018617
39	0x3e31e30a	0.17371765
40	0xbe206edb	-0.15667288
41	0xbdc00d18	-0.093774974
42	0x3dbd43a8	0.0924142
43	0x3eac8b0d	0.33699837
44	0x3e6b5efa	0.2298545
45	0xbdc54160	-0.0963161
46	0xbf36f7f5	-0.714721
47	0xbf6d1ee7	-0.9262528
48	0xbd816cc6	-0.06319575
49	0xbe91daf4	-0.2848736
50	0x3c242253	0.010017949
51	0x3dbc39b3	0.09190693
52	0x3ecc1857	0.3986232
53	0xbcdcd27a	-0.026955832
54	0x3ee59cf7	0.44846317
55	0x3f038713	0.5137798
56	0x3dc80b65	0.09767798
57	0x3d4b89ab	0.049691837
58	0x3ec1d02c	0.37854135
59	0x3ef10290	0.47072268
60	0xbba6888c	-0.0050821956
61	0x3eb4ce64	0.35313714
62	0x3e7ad987	0.24497043
63	0x3dd071e6	0.101779744
64	0x3ea0b8cf	0.31390998
65	0x3e11b5b1	0.14229466
66	0x3da3caa8	0.07997638
67	0x3e520ece	0.2051346
68	0x3ef39ccf	0.47580573
69	0xbcae883e	-0.0213052
70	0x3e483742	0.19552329
71	0x3d41a25c	0.04727398
72	0xbf2fabd6	-0.68621576
73	0xbf04119f	-0.5158939
74	0xbf410287	-0.7539448
75	0xbf35deb2	-0.7104293
76	0xbef64a6b	-0.4810365
77	0xbe609872	-0.21933153
78	0xbf6970ba	-0.9118763
79	0xbf2ff5fa	-0.68734705
80	0xbec6f746	-0.3886053
81	0xbecca2c9	-0.39967945
82	0xbedc736a	-0.43056804
83	0xbf043baa	-0.5165354
84	0xbecf7b71	-0.40523866
85	0xbe6691aa	-0.22516504
86	0x3e770c69	0.24125828
87	0xbe08a914	-0.13345748
88	0x3dfff2a0	0.12497449
89	0x3f152277	0.58255714
90	0xbef62d7f	-0.48081586
91	0xbeea61ef	-0.45777842
92	0xbe9ca826	-0.30597037
93	0xbbbe2d3e	-0.005803733
94	0x3d0d9f46	0.034575723
95	0x3eb31b8f	0.34981963
96	0x3ea324ea	0.318641
97	0x3f16c3c7	0.5889248
98	0x3f71cf89	0.944573
99	0xbf11c3f5	-0.5693963
100	0xbec43ab8	-0.3832605
101	0xbe40ee85	-0.18840988
102	0xbeb6ebea	-0.35726863
103	0x3df4d0df	0.119539015
104	0x3eef6bb0	0.46761847
105	0x3e26e6f6	0.16299042
106	0x3edcb5b3	0.43107376
107	0x3f55ef5c	0.8356836
108	0x3cbfe91e	0.023426589
109	0x3d5eeb63	0.0544237
110	0xbe4d8655	-0.20070775
111	0x3dec0347	0.115240626
112	0xbebe2df5	-0.37144437
113	0xbf08cc4c	-0.5343673
114	0xbc65cafe	-0.014025448
115	0xbf07a701	-0.529892
116	0xbec5ee93	-0.3865858
117	0x3e63eaf9	0.22257604
118	0xbd29bf5e	-0.041442268
119	0xbdf5859f	-0.11988377
120	0x3da09be5	0.078422345
121	0xbf02823b	-0.50979966
122	0xbf30e9b9	-0.6910663
123	0xbe88d749	-0.2672675
124	0xbf88b0ec	-1.0678992
125	0xbf6405a2	-0.89071095
126	0x3e56ccfe	0.20976636
127	0x3da86097	0.08221548
128	0x3da45a07	0.08024984
129	0x3e537250	0.20649076
130	0xbf3cf9cb	-0.73818654
131	0xbeecabb8	-0.4622476
132	0xbe5acd76	-0.2136744
133	0xbf78ab14	-0.97136045
134	0xbf34a414	-0.70562863
135	0xbd6806b7	-0.05664703
136	0x3eed5997	0.46357414
137	0x3ee26c91	0.44223455
138	0x3e1e36d2	0.154506
139	0x3c06504a	0.008197853
140	0xbd6bb6f4	-0.057547525
141	0x3c2227e4	0.009897206
142	0xbf6a06b1	-0.9141646
143	0xbea5e859	-0.3240383
144	0x3e1a798d	0.1508543
145	0x3f1af270	0.6052618
146	0x3f014a9c	0.5050447
147	0x3e9bb718	0.30413127
148	0x3bb09524	0.0053888727
149	0x3c3cca7c	0.011522885
150	0x3e0393aa	0.12849298
151	0xbf3ebe7c	-0.74509406
152	0xbecd41da	-0.40089303
153	0x3ddf285f	0.10896372
154	0x3f29662f	0.66171545
155	0x3eaca7e7	0.3372185
156	0x3e3c6311	0.18397166
157	0xba018391	-0.00049405644
158	0xbbc69592	-0.0060603106
159	0x3d01d735	0.031699378
160	0xbf3a079a	-0.7266785
161	0xbed8fb7b	-0.42379364
162	0xbed2e605	-0.41191116
163	0xbf006e10	-0.5016794
164	0xbeb1a066	-0.34692687
165	0xbf014941	-0.505024
166	0xbf0db679	-0.55356556
167	0xbe8a4263	-0.27003774
168	0xbeb53a2f	-0.35395953
169	0xbedd6264	-0.4323913
170	0xbe195cda	-0.14976826
171	0xbd8d8b7c	-0.0691137
172	0xbee0766d	-0.43840352
173	0xbda5a6f1	-0.08088482
174	0xbeaa14cb	-0.3321899
175	0xbf0e904d	-0.55688936
176	0xbe13252c	-0.14369649
177	0xbe6d1395	-0.23152001
178	0xbe04478d	-0.1291792
179	0xbdf4e275	-0.11957256
180	0xbf0da7ef	-0.5533437
181	0xbf365aa9	-0.71232086
182	0xbe7a0a72	-0.24418047
183	0xbed75207	-0.4205477
184	0xbf3170f5	-0.69312984
185	0xbf11cba2	-0.56951344
186	0xbe5509de	-0.20804545
187	0xbe68422f	-0.22681497
188	0x3d852a16	0.06502168
189	0xbe00a3f9	-0.1256255
190	0xbe82b51e	-0.25528806
191	0x3e3fded1	0.18737341
192	0x3dfa60b7	0.12225478
193	0x3cd28b73	0.02570126
194	0xbd44a363	-0.04800738
195	0xbc0ca252	-0.008583622
196	0xbe522d20	-0.20525026
197	0xbd3505d7	-0.044195022
198	0xbdfc253e	-0.12311791
199	0x3e296dda	0.16545811
200	0x3e8b2404	0.27175915
201	0xbc48c1e2	-0.0122532565
202	0x3e71d96d	0.23618098
203	0x3e5a3f67	0.21313249
204	0x3dcda4ef	0.10041224
205	0xbe023c1e	-0.12718245
206	0x3cde14d4	0.027109541
207	0x3e472785	0.19448669
208	0x3eff861f	0.49907014
209	0x3f41b320	0.7566395
210	0x3f24c26f	0.6435918
211	0x3f181285	0.5940326
212	0x3f37e508	0.7183385
213	0x3f112249	0.5669294
214	0x3e946a11	0.28987172
215	0x3ec2dd27	0.3805935
216	0xbe5728c7	-0.21011649
217	0x3cc74d41	0.02432883
218	0x3f0979bd	0.5370138
219	0x3f1a6ab4	0.60319066
220	0x3be52c4f	0.0069938074
221	0x3f1f256a	0.62166464
222	0x3f03912d	0.51393396
223	0xbe5f83a9	-0.21827568
224	0xbe56c50e	-0.20973608
225	0xbe5c6a6c	-0.21524972
226	0x3dfc27e9	0.123123
227	0x3e96a84b	0.29425272
228	0x3eb0cc08	0.34530663
229	0x3ea9dd19	0.33176497
230	0x3dbbf903	0.091783546
231	0x3ee220d7	0.4416568
232	0xbd26a7c3	-0.040687334
233	0xbe91a1a3	-0.28443632
234	0x3e753d6f	0.23949216
235	0x3e8cc8f5	0.27497068
236	0x3e035268	0.12824404
237	0x3f19df33	0.601062
238	0x3f1a1587	0.601891
239	0x3ebf2628	0.37333798
240	0x3f403c06	0.7509159
241	0x3e3e4704	0.18581778
242	0xbcda2f1d	-0.026633793
243	0x3e686189	0.22693457
244	0xbecfe450	-0.40603876
245	0xbef6301f	-0.48083588
246	0x3ea808a4	0.32819092
247	0xbe4264c1	-0.18983747
248	0xbe425ecb	-0.18981473
249	0x3f0fbcc3	0.561474
250	0x3ee673f4	0.4501034
251	0xbd000c21	-0.031261567
252	0x3c929d49	0.017897265
253	0xbe9185bf	-0.28422353
254	0xbf19e294	-0.60111356
255	0x3ec41d44	0.38303578

backbone.0.stem.0.bias f4 [40]
0	0xbcb437a3	-0.021999186
1	0x3c8a0861	0.016849698
2	0xbb41cf80	-0.0029573143
3	0xbc258545	-0.010102575
4	0x3b5795e9	0.003289575
5	0x3c45cda8	0.012072958
6	0x3bd16636	0.0063903583
7	0xbb5b0fdf	-0.0033426208
8	0xbb02b42d	-0.001994382
9	0xbb7b7366	-0.0038368343
10	0x3c344230	0.011002108
11	0x398dba8a	0.00027032598
12	0xbb3190b3	-0.0027094304
13	0xbba4149b	-0.005007339
14	0x3c3ae1ae	0.011406345
15	0xbbeb91c4	-0.0071890075
16	0x3bf63174	0.0075132195
17	0xbcb301df	-0.021851478
18	0x3c26d249	0.010181972
19	0xbcdbb598	-0.02681999
20	0x3d2bc7c1	0.041938547
21	0x3bee12dc	0.007265432
22	0xbc9f40de	-0.01944011
23	0x3cf278db	0.029598644
24	0x3c97550b	0.018473169
25	0xbc0c11cd	-0.008549166
26	0xba8b5d26	-0.0010632619
27	0xbbfa3b1d	-0.0076364414
28	0x3c38f225	0.0112882005
29	0x3cb39656	0.021922272
30	0xbb5a6612	-0.0033324999
31	0xbc586852	-0.013208466
32	0xbbe218e4	-0.00689994
33	0xbbacecf4	-0.0052772705
34	0x3c4d631c	0.012535837
35	0x3c0e7674	0.008695234
36	0x3bdbd443	0.006708653
37	0xbb58729f	-0.0033027304
38	0xbc051827	-0.008123434
39	0xbcaf499b	-0.021397403

backbone.0.stem.1.weight f4 [40]
0	0x3f1c7513	0.6111614
1	0x3f0f89d1	0.56069666
2	0x3f8604d0	1.0470219
3	0x3f14040f	0.5781869
4	0x3f2d420d	0.6767891
5	0x3ef8bdfb	0.48582444
6	0x3eefa777	0.46807453
7	0x3f010818	0.50402975
8	0x3ed95b28	0.4245236
9	0x3f4b4c1a	0.79412997
10	0x3f0ead75	0.55733424
11	0x3f443493	0.7664272
12	0x3f391d0f	0.72309965
13	0x3f697596	0.91195047
14	0x3eb27f93	0.34862956
15	0x3f7c7461	0.9861508
16	0x3f0fef89	0.56224877
17	0x3f5d9783	0.86559314
18	0x3f1ce0a9	0.61280304
19	0x3f582ac5	0.8444026
20	0x3fa3f6f4	1.2809739
21	0x3ed62f63	0.41833028
22	0x3f373736	0.7156862
23	0x3f2adc92	0.66742814
24	0x3ee7fc1d	0.45309535
25	0x3e2e12b6	0.16999325
26	0x3ed6052d	0.41800824
27	0x3e31b12f	0.17352746
28	0x3f2edb9f	0.68303865
29	0x3ef7b4cb	0.48380122
30	0x3f372476	0.7154001
31	0x3f8ceef7	1.1010426
32	0x3eded272	0.43519932
33	0x3f6c8257	0.9238638
34	0x3ec844fd	0.39115134
35	0x3f60bf84	0.8779223
36	0x3f87abc7	1.0599297
37	0x3f6dedd5	0.9294103
38	0x3ef2b1aa	0.47401172
39	0x3f340a38	0.7032809

backbone.0.stem.1.bias f4 [40]
0	0x3ed59dbb	0.417219
1	0x3e30d8f1	0.17270257
2	0xbd1803e8	-0.0371131
3	0x3f12e25a	0.57376635
4	0x3ebb7472	0.36612278
5	0x3eeac578	0.45853782
6	0x3f2da694	0.67832303
7	0xbefa02b4	-0.48830187
8	0x3f15c4c9	0.58503395
9	0x3ed57594	0.41691267
10	0xbeaed476	-0.3414647
11	0x3d04244c	0.032261178
12	0x3d00bfa9	0.03143278
13	0xbe46fd4b	-0.19432561
14	0x3f1e70e5	0.61891013
15	0xbddfd5d2	-0.10929455
16	0xbecb3eee	-0.3969645
17	0x3e07a7ee	0.13247654
18	0xbe92ac1c	-0.28646934
19	0x3da78927	0.081804566
20	0x3eeead5f	0.46616647
21	0x3f21a5aa	0.6314341
22	0x3cab4683	0.020907646
23	0x3eb21209	0.34779385
24	0x3f15d872	0.58533394
25	0x3f60d4f9	0.8782497
26	0xbe272f72	-0.16326693
27	0x3f4306f6	0.76182497
28	0x3f257ec0	0.6464653
29	0x3eceaa52	0.4036432
30	0x3ed0e9b7	0.4080331
31	0x3ed20299	0.41017607
32	0x3ec83d64	0.39109337
33	0x3e71b650	0.23604703
34	0x3f08f0ef	0.53492635
35	0xbdc2904e	-0.0950018
36	0xbdbae238	-0.09125179
37	0x3e0f268d	0.1397955
38	0x3f244a7d	0.6417616
39	0x3e9f6dad	0.31138363

backbone.0.stem.1.running_mean f4 [40]
0	0xbf0b7552	-0.5447589
1	0x3ebfd926	0.3747036
2	0xbf027aec	-0.50968814
3	0x3e0f4d36	0.13994297
4	0xc04cf132	-3.2022214
5	0x3e58b4ac	0.21162671
6	0xc0756d7c	-3.8348074
7	0x4006884f	2.1020696
8	0x401d2b75	2.4557774
9	0xbd42f464	-0.04759635
10	0xbe1447c1	-0.14480497
11	0x3fb93ee3	1.4472317
12	0x3eb9cf19	0.36290815
13	0xbcee13f4	-0.029062249
14	0x3d6eb2a9	0.058275852
15	0xbdbc87b0	-0.09205568
16	0xbfb6280c	-1.4230971
17	0xbf800676	-1.0001972
18	0x3f9507c4	1.1642995
19	0xbf511d39	-0.81685215
20	0x3e4864b4	0.19569665
21	0xc01c8b78	-2.4460125
22	0xc00424a3	-2.0647361
23	0x3f3988d3	0.724744
24	0x3d251757	0.04030546
25	0xc02d6c43	-2.7097328
26	0x3fba48e8	1.4553499
27	0xbd82ab40	-0.063803196
28	0x3d9f4e90	0.077786565
29	0x3e5994e0	0.21248198
30	0xbf472049	-0.7778364
31	0x402fa180	2.7442322
32	0x404513f9	3.079344
33	0x3e66812b	0.22510211
34	0x3f9ffc89	1.2498943
35	0x3ff97685	1.9489294
36	0xc077e64e	-3.8734317
37	0x4035b7d1	2.8393443
38	0xbd960e38	-0.07326931
39	0x3e19f6dc	0.15035576

backbone.0.stem.1.running_var f4 [40]
0	0x3e7e5734	0.24837953
1	0x3e3a8a8f	0.18216918
2	0x3ed387c8	0.4131453
3	0x3e73c387	0.23805057
4	0x405c4ec5	3.4423077
5	0x3e1d8a0f	0.15384696
6	0x4097a30c	4.738653
7	0x3fd28d91	1.6449453
8	0x4000b01a	2.0107484
9	0x3e29f900	0.16598892
10	0x3dd4431e	0.10364364
11	0x3f3d4b73	0.7394325
12	0x3e9706c1	0.2949734
13	0x3e1a8479	0.15089597
14	0x3e194bea	0.14970365
15	0x3e289b79	0.16465558
16	0x3f50843b	0.8145177
17	0x3f02daa8	0.5111489
18	0x3f34875c	0.7051904
19	0x3e8e25d7	0.27763245
20	0x3e0b9437	0.13630758
21	0x4002a12c	2.0410872
22	0x3fb91af1	1.4461347
23	0x3e8847db	0.2661732
24	0x3d81dec9	0.06341321
25	0x4015af4d	2.3388245
26	0x3f400248	0.7500348
27	0x3d3dd9b7	0.046350207
28	0x3d550d9a	0.052014925
29	0x3e335de6	0.17516288
30	0x3e952318	0.29128337
31	0x401f63c3	2.490464
32	0x4043fb3c	3.0622091
33	0x3e0f9ce8	0.14024699
34	0x3f14910d	0.5803383
35	0x3fa51164	1.2895932
36	0x40971b51	4.7220845
37	0x4022f554	2.5462236
38	0x3e1ebb25	0.15501077
39	0x3db09463	0.086220525

backbone.0.stem.3.weight f4 [40, 1, 3, 3]
0	0xbed11507	-0.40836355
1	0xbec8c401	-0.3921204
2	0xbebc0c89	-0.36728314
3	0xbd54a96b	-0.051919382
4	0x3eadf39c	0.33974922
5	0x3a2b6e4d	0.00065395684
6	0x3f2a298c	0.66469646
7	0x3ef04704	0.4692918
8	0x3e842fe8	0.258178
9	0xbecb4788	-0.39703012
10	0xbec1d1a2	-0.3785525
11	0x3ebfeef2	0.37486988
12	0x3d85ca4b	0.06532725
13	0x3f028dcc	0.50997615
14	0x3f1cd97f	0.6126937
15	0xbe5ae362	-0.21375802
16	0xbf0ac5e9	-0.54208237
17	0x3e948171	0.29005006
18	0x3d165a75	0.03670736
19	0xbebbf0e9	-0.36707237
20	0xbe0bf24e	-0.1366665
21	0xbf033c08	-0.51263475
22	0xbfbc2576	-1.4698932
23	0x3d4c5852	0.049888916
24	0x3dd78bf5	0.105247416
25	0xbf018c0e	-0.5060433
26	0xbe06e4e3	-0.13173251
27	0xbe60ea68	-0.21964419
28	0x3e18df71	0.14928986
29	0xbf11f581	-0.57015234
30	0x3f2a3371	0.66484743
31	0x3f479672	0.77963936
32	0xbe5dac96	-0.21647868
33	0x3e2eb393	0.1706069
34	0x3e3f1df2	0.18663767
35	0xbe9f5c0d	-0.31124917
36	0xbea87d54	-0.32908118
37	0xbefae5f0	-0.49003553
38	0xbeaa561c	-0.3326882
39	0x3e330ab5	0.17484553
40	0xbe5f8142	-0.21826652
41	0x3e6fc72b	0.2341582
42	0xbb80cf4b	-0.0039309612
43	0x3f285bac	0.6576488
44	0x3f3e112d	0.7424496
45	0x3f11d6a4	0.5696814
46	0x3f303a29	0.68838745
47	0x3ec141ff	0.37745664
48	0xbeaa0726	-0.3320858
49	0xbed41762	-0.4142409
50	0x3e903246	0.28163356
51	0xbf420f77	-0.7580485
52	0xbe8b4d62	-0.27207476
53	0x3d8686f5	0.0656871
54	0xbf24e063	-0.64404887
55	0xbfa53bf9	-1.2908927
56	0x3e497570	0.19673705
57	0xbe4d6b42	-0.20060447
58	0xbf1529fc	-0.5826719
59	0x3e133873	0.14377002
60	0xbd352b9d	-0.044231046
61	0xbe1ba7f0	-0.15200782
62	0x3da65e41	0.08123446
63	0xbe3c258c	-0.18373698
64	0xbeafaea6	-0.34312934
65	0xbef455ba	-0.47721654
66	0x3e7f8f58	0.24957025
67	0x3ee7523a	0.4517992
68	0xbe0749bd	-0.13211723
69	0x3f0adf8d	0.5424736
70	0x3ea49f77	0.32152912
71	0xbe2aabea	-0.16667143
72	0x3ecf6be5	0.40512004
73	0x3db71b6c	0.08940777
74	0xbef0d920	-0.47040653
75	0x3e807a66	0.25093383
76	0xbdcd3b46	-0.10021071
77	0xbf043084	-0.5163653
78	0x3eee323d	0.46522704
79	0xbe2f473e	-0.1711702
80	0xbf3c4a84	-0.735512
81	0x3f16e344	0.5894053
82	0x3d80ac28	0.06282836
83	0x3d64efff	0.05589294
84	0x3f76f663	0.96469706
85	0x3f2cc949	0.67494637
86	0xbcac0526	-0.020998549
87	0x3f0b0b85	0.5431445
88	0x3f2b6767	0.66954654
89	0xbde8191f	-0.113329165
90	0xbebec380	-0.3725853
91	0x3f033922	0.5125905
92	0x3f10fe15	0.566377
93	0xbedede90	-0.43529177
94	0x3e5a1fcb	0.2130119
95	0x3f1c54df	0.61067003
96	0xbe9344c1	-0.28763393
97	0xbdab7f5d	-0.08373902
98	0xbe3bf8d7	-0.18356644
99	0xbe8a3330	-0.26992178
100	0xbe255d9f	-0.16148995
101	0xbeaea0b4	-0.34106982
102	0xbec85826	-0.39129752
103	0xbefda04c	-0.4953636
104	0xbf08ed73	-0.5348732
105	0xbe8dd6a1	-0.2770281
106	0xbec424b9	-0.38309267
107	0xbe9d317f	-0.30701825
108	0xbeac5344	-0.33657277
109	0x3f3f4197	0.7470946
110	0x3f69c8d2	0.9132205
111	0xbe17834e	-0.14796183
112	0x3dd818bf	0.10551595
113	0x3f00a689	0.5025411
114	0xbe951cb6	-0.29123467
115	0xbe889c6a	-0.26681834
116	0x3d19b737	0.037528243
117	0xbed1db07	-0.40987417
118	0xbe30480e	-0.17214987
119	0xbe3b52c2	-0.18293288
120	0xbe7bde40	-0.245965
121	0xbf0412fa	-0.51591456
122	0xbf5d5248	-0.86453676
123	0xbebc0787	-0.36724493
124	0xbf0430ac	-0.5163677
125	0xbeb7ab80	-0.35873032
126	0x3de58cfd	0.11208532
127	0xbd8d1f9e	-0.06890796
128	0xbdd8d96e	-0.105883464
129	0x3f3bc99a	0.73354495
130	0x3f4a3203	0.7898256
131	0x3f1f24ce	0.62165534
132	0x3f19c5d6	0.600675
133	0x3f104e39	0.5636936
134	0x3e835c4f	0.25656363
135	0x3e02107b	0.127016
136	0x3f3558a6	0.7083839
137	0x3f5fb23d	0.87381345
138	0xbd93dafa	-0.07219501
139	0x3e949ecf	0.2902741
140	0x3ec26516	0.37967747
141	0xbe36da0d	-0.17856617
142	0xbe416114	-0.18884689
143	0xbe1014b5	-0.14070399
144	0x3dd51aa7	0.10405474
145	0xbe79494d	-0.24344368
146	0xbeeb33e9	-0.45938042
147	0x3f270dba	0.6525532
148	0x3f154fd3	0.5832493
149	0xbdd32b44	-0.10310987
150	0x3f186922	0.5953542
151	0x3ee63866	0.44964904
152	0x3e0dac55	0.1383527
153	0xbd0c2856	-0.034218155
154	0x3c9cb856	0.019130867
155	0xbf06907b	-0.5256421
156	0x3f11defc	0.5698087
157	0x3e57abc4	0.21061617
158	0xbe03fa8e	-0.12888548
159	0x3f5b1fac	0.855952
160	0x3e4b7180	0.19867516
161	0xbe1fec46	-0.15617475
162	0x3ed6a118	0.4191978
163	0x3f6f6b6a	0.93523276
164	0x3f03e08f	0.51514524
165	0xbe83276a	-0.25616008
166	0xbe39e438	-0.18153465
167	0xbec8d9eb	-0.39228758
168	0x3ac2a766	0.0014850914
169	0xbe3c0817	-0.18362461
170	0xbe1cb8a7	-0.15304814
171	0x3f1c51dc	0.6106241
172	0x3ec8e597	0.39237663
173	0x3ebd9e9d	0.37035075
174	0xbe01a5ce	-0.12660906
175	0x3e0bc396	0.13648829
176	0xbe85bbfe	-0.2611999
177	0xbd3ee73d	-0.046607245
178	0xbf1fadc3	-0.62374514
179	0xbe7c9db5	-0.24669535
180	0x3f7ef383	0.9959032
181	0x3e787b32	0.24265745
182	0xbeb773df	-0.3583059
183	0x3e3242a0	0.17408228
184	0xbd2925a0	-0.041295648
185	0xbe72965d	-0.23690172
186	0xbe176b36	-0.14786991
187	0xbeb33dbc	-0.35008037
188	0xbe5cc609	-0.2155992
189	0x3f5c5e34	0.8608124
190	0x3f153a08	0.58291674
191	0xbe1ae125	-0.15124948
192	0x3edff861	0.43744186
193	0xbd37d235	-0.044878203
194	0xbe67874f	-0.2261021
195	0x3e0557dd	0.13021798
196	0xbedcf5fc	-0.4315642
197	0xbea663eb	-0.32498106
198	0xbea5fa48	-0.32417512
199	0x3f2612f2	0.6487266
200	0x3f73f34b	0.9529311
201	0xbdd595b1	-0.10428942
202	0xbbaedb2d	-0.0053361864
203	0x3e8641a1	0.26221946
204	0xbd1c5bd9	-0.03817353
205	0xbddf1606	-0.108928725
206	0xbf125fd4	-0.5717747
207	0xbea0e221	-0.31422523
208	0x3ed40070	0.41406584
209	0x3f08cb85	0.53435546
210	0xbde561ad	-0.11200271
211	0x3e1ae47f	0.15126227
212	0x3f15acc4	0.58466744
213	0xbeceede0	-0.4041586
214	0xbe7dfb3d	-0.24802871
215	0x3eb22b73	0.34798774
216	0xbeee4d94	-0.46543562
217	0xbf0138c6	-0.50477254
218	0xbe3da4da	-0.18519917
219	0xbc5816b9	-0.013189011
220	0x3e1c91b9	0.15289964
221	0x3e313966	0.17307052
222	0x3f195ef5	0.5991052
223	0x3f56e681	0.8394547
224	0x3ea32291	0.3186231
225	0x3f0badc7	0.5456204
226	0xbd5e8cd5	-0.054333527
227	0xbdc043bc	-0.09387919
228	0x3e3f7f0b	0.18700807
229	0xbd29f9f8	-0.041498154
230	0x3d4bf476	0.049793683
231	0xbdb0095f	-0.085955374
232	0xbe72b87c	-0.23703188
233	0xbf5d6ffb	-0.86498994
234	0x3e96e9ab	0.2947515
235	0x3ed424ed	0.41434422
236	0x3ea14f63	0.3150588
237	0x3e2ca8e2	0.16861299
238	0x3e974ba6	0.29549903
239	0x3e9d38a1	0.30707267
240	0xbe8101ce	-0.2519669
241	0x3d3a8632	0.045538135
242	0x3cf1a5ca	0.029498
243	0xbe0ba353	-0.13636522
244	0x3eb76d22	0.3582545
245	0x3e764a02	0.24051669
246	0xbefe9d89	-0.49729565
247	0x3e4116fd	0.18856426
248	0x3eaebad5	0.34126917
249	0x3dad62a3	0.08466079
250	0xbef61d26	-0.48069113
251	0xbf4c1411	-0.7971812
252	0xbd15f58c	-0.036611125
253	0xba131d50	-0.0005611973
254	0xbdd61175	-0.104525484
255	0xbf00e939	-0.5035587

backbone.0.stem.3.bias f4 [40]
0	0xbafdddc4	-0.001936846
1	0x3c06f012	0.008235948
2	0x3bd0fd32	0.0063778395
3	0xbb81037a	-0.003937182
4	0x3c156d28	0.009120263
5	0x3b61c76e	0.0034451145
6	0xbb4290e6	-0.0029688417
7	0x3c131897	0.008978031
8	0x3b2cf7e2	0.0026392867
9	0x3ca75954	0.020428337
10	0x3c1e012c	0.009643834
11	0xbb350014	-0.0027618455
12	0xbc34f92c	-0.011045735
13	0x3c5ec5db	0.013596977
14	0x3c986da1	0.018606963
15	0xb9b62d0b	-0.00034747305
16	0x3c3d20ae	0.011543436
17	0xbbf98cb4	-0.00761565
18	0xbcb44477	-0.022005303
19	0xb8db38de	-0.00010453326
20	0xbc9762d6	-0.018479746
21	0xbbbff774	-0.005858356
22	0xbc6b39a2	-0.014357002
23	0x3bb0af7a	0.005392012
24	0x3cc23495	0.023706714
25	0x3a9121d6	0.0011072706
26	0xbb3d8b58	-0.0028922167
27	0xbd166dad	-0.03672569
28	0x3bde8c24	0.0067916084
29	0x3ca365c2	0.019945983
30	0xbb061eb4	-0.0020465078
31	0xbb54a941	-0.0032449516
32	0xbbed4d0c	-0.0072418507
33	0xbb049607	-0.0020231025
34	0x3c477931	0.01217489
35	0xba49657d	-0.00076826644
36	0x3b80ce28	0.0039308257
37	0x3aca8e20	0.0015453734
38	0x3cca4076	0.02468894
39	0xbb80dcaf	-0.0039325575

backbone.0.stem.4.weight f4 [40]
0	0x3fedd6fe	1.8581235
1	0x3f8bb6ff	1.0915221
2	0x3f3c5375	0.73564845
3	0x3f80d8e8	1.0066195
4	0x3f15e915	0.5855878
5	0x3f4b4b8a	0.7941214
6	0x3f28fd0e	0.6601113
7	0x3f5f190c	0.87147593
8	0x3f2450fb	0.64186066
9	0x3f454966	0.7706512
10	0x3ef731ba	0.48280126
11	0x3eec612b	0.46167883
12	0x3fe5645b	1.7921251
13	0x3f4b25cc	0.7935455
14	0x3fa73fbc	1.3066325
15	0x3f86a6d3	1.0519661
16	0x3f8bdaab	1.0926107
17	0x3fa54cc0	1.2914047
18	0x3f6d9f9c	0.9282167
19	0x3f403812	0.75085557
20	0x3f2caaca	0.67448103
21	0x3e5acb95	0.21366723
22	0x3f77346e	0.96564376
23	0x3f7e6b8d	0.9938286
24	0x3f6aa3a5	0.9165595
25	0x3f873cf7	1.056548
26	0x3f520e9f	0.8205356
27	0x3f06ac0a	0.5260626
28	0x3f40fadf	0.753828
29	0x3f21b110	0.631608
30	0x3fae2e73	1.3607925
31	0x3fd83883	1.6892246
32	0x3fb53327	1.4156235
33	0x3f83e773	1.0305008
34	0x3f5b49a4	0.8565924
35	0x3f49822c	0.7871425
36	0x3f9b0c1a	1.2113068
37	0x3f857fa3	1.0429577
38	0x3f0f55a3	0.55990046
39	0x3f3e73ed	0.7439564

backbone.0.stem.4.bias f4 [40]
0	0x3f391dbf	0.72311014
1	0xbc1a9c90	-0.0094367415
2	0x3f4cc287	0.79984325
3	0x3f064427	0.5244774
4	0x3e96f8b5	0.29486623
5	0x3f5d88ea	0.8653704
6	0x3ed60a40	0.41804695
7	0x3e2c490f	0.16824745
8	0x3ee93ce5	0.4555427
9	0x3f9205db	1.1408037
10	0x3e901d9e	0.28147596
11	0x3f203778	0.6258464
12	0x3f51ff2b	0.8202998
13	0x3f79ad27	0.97529835
14	0x3f410500	0.75398254
15	0x3ecff498	0.40616298
16	0x3e90ba22	0.28267008
17	0x3f911283	1.1333774
18	0xbe53403f	-0.20629977
19	0x3ed55b0f	0.41671035
20	0x3e16fab4	0.14744073
21	0x3e82a37d	0.25515357
22	0x3e13071d	0.14358182
23	0x3f0145d6	0.50497186
24	0x3f726ef0	0.9470053
25	0x3f15598f	0.5833978
26	0xbe2ae40e	-0.16688558
27	0x3eea8520	0.4580469
28	0x3ecfed66	0.40610808
29	0x3f2b8624	0.6700156
30	0x3f2c2a4d	0.67252046
31	0x3e873559	0.2640789
32	0x3eca29c0	0.39484978
33	0x3eae72c5	0.34071937
34	0x3d2a5da5	0.041593213
35	0xbd045483	-0.03230716
36	0xbe825170	-0.25452757
37	0x3ea6eec0	0.32604027
38	0x3ec68bb9	0.38778475
39	0x3e3e7455	0.18599065

backbone.0.stem.4.running_mean f4 [40]
0	0x3e80a92a	0.25129062
1	0x3d8b00fb	0.067872964
2	0xbf857a21	-1.0427896
3	0x3ea049dd	0.31306353
4	0x3e655fcc	0.22399825
5	0x3dabb227	0.08383589
6	0xbfd82b3c	-1.6888194
7	0x3cc44e32	0.023963068
8	0xbee575b6	-0.4481637
9	0x3fddf883	1.7341465
10	0x3d2ce9c3	0.04221512
11	0xbf81737c	-1.0113368
12	0x3ea80ab9	0.3282068
13	0xbf494d75	-0.78633815
14	0x400b04d0	2.1721687
15	0x3eee17e1	0.46502593
16	0x3e0588bc	0.13040441
17	0x3ed029d5	0.40656915
18	0x3d9839a7	0.07432871
19	0x3db374c9	0.087625094
20	0x3cbfe051	0.023422392
21	0x3f03f537	0.51546043
22	0x3e48b48e	0.19600126
23	0x3ee0ed7d	0.4393119
24	0x3f0e2ef0	0.5554037
25	0xbf00a7a7	-0.5025582
26	0x3e222881	0.15835764
27	0xbf0ea1e0	-0.5571575
28	0x3da6b246	0.08139472
29	0x3e833579	0.25626734
30	0xbfe1dfee	-1.7646463
31	0xbf91cde2	-1.1390955
32	0x3f665e99	0.89988095
33	0xbf9433e7	-1.1578339
34	0x3d034e83	0.032057296
35	0xbeb45e32	-0.35228115
36	0x3fb631d0	1.4233952
37	0x3fcca7bc	1.5988688
38	0xbe29a8a7	-0.16568242
39	0x3c32319f	0.010876088

backbone.0.stem.4.running_var f4 [40]
0	0x3e264ea4	0.16240937
1	0x3dcc2627	0.099682145
2	0x4017cd8b	2.3719203
3	0x3ea0d5bc	0.31413066
4	0x3dde347a	0.10849853
5	0x3e9d5201	0.30726627
6	0x3f9cfbdc	1.2264361
7	0x3bab96d7	0.0052364874
8	0x3e17fb53	0.14841966
9	0x4006fff6	2.1093726
10	0x3cdcfcbd	0.026975984
11	0x4005370d	2.081485
12	0x3ecdbca4	0.40182984
13	0x404e0b20	3.219429
14	0x3f642f3a	0.8913456
15	0x3f54ba2f	0.83096594
16	0x3d8c0d32	0.06838454
17	0x3e9a727f	0.3016548
18	0x3d5ea5d1	0.054357354
19	0x3e53a772	0.20669344
20	0x3f7872e3	0.97050303
21	0x3e30c7c4	0.17263705
22	0x3ddd2e7c	0.10799882
23	0x3ebfe1ed	0.37477055
24	0x3e43cdc7	0.19121467
25	0x3d45dee9	0.048308287
26	0x3dd5ae13	0.10433593
27	0x3d781764	0.060569182
28	0x3eaf29c3	0.3421155
29	0x3d917882	0.07103063
30	0x4026ba9b	2.6051395
31	0x4005beec	2.089778
32	0x3f37e0d8	0.7182746
33	0x40237873	2.5542266
34	0x3d9d0506	0.07666974
35	0x3ed64817	0.41851875
36	0x406f4df4	3.739133
37	0x409b64d0	4.856056
38	0x3e67d4f7	0.22639833
39	0x3e82e1a6	0.2556278

backbone.1.layers.0.bn.weight f4 [40]
0	0x3f5b9b9d	0.8578432
1	0x3e9eb85e	0.31000036
2	0x3f212986	0.62953985
3	0x3f9c9410	1.2232685
4	0x3f9137ee	1.1345193
5	0x3f99d2b7	1.201743
6	0x3f95d493	1.1705498
7	0x3ed03e3c	0.4067248
8	0x3f8eb044	1.1147542
9	0x3f978088	1.18361
10	0x3ee6584e	0.44989246
11	0x3f97bb1a	1.1853974
12	0x3ebecc8f	0.3726544
13	0x3f94435f	1.158306
14	0x3f8bcb3e	1.09214
15	0x3f3b1f13	0.7309429
16	0x3f9d5548	1.2291651
17	0x3f72dc47	0.94867367
18	0x3ed8f3b0	0.4237342
19	0x3fa8959b	1.3170656
20	0x3ed1335e	0.40859503
21	0x3fbdbcdc	1.482326
22	0x3f9d67e9	1.2297336
23	0x3f3fe963	0.74965495
24	0x3fb91709	1.4460155
25	0x3fa6342a	1.2984669
26	0x3e9b1824	0.30291855
27	0x3f44a9a3	0.76821345
28	0x3f272134	0.6528504
29	0x3f947636	1.1598575
30	0xbe26d00a	-0.16290298
31	0x3f87dc88	1.0614176
32	0x3f8ad92f	1.0847529
33	0x3f839e96	1.0282772
34	0x3fffef99	1.9994994
35	0x3fb6b2a4	1.4273267
36	0x3f8aed7f	1.0853728
37	0x3f02f6ce	0.51157844
38	0x3f6d77bf	0.92760843
39	0x3f4debff	0.80438226

backbone.1.layers.0.bn.bias f4 [40]
0	0xbd4f5ee6	-0.05062761
1	0x3e805080	0.25061417
2	0xbd838187	-0.0642119
3	0xbd0f3363	-0.034961116
4	0x3ea2a126	0.31763572
5	0xbc7619c9	-0.015020796
6	0x3e9b90ac	0.30383813
7	0xbd8782b9	-0.0661673
8	0x3eed76fa	0.46379834
9	0x3e398af0	0.18119407
10	0x3eab43f7	0.3345029
11	0x3ecbd937	0.3981416
12	0xbe8eb937	-0.27875683
13	0x3eb1ac69	0.3470185
14	0x3faf6326	1.3702133
15	0x3e983b3d	0.29732695
16	0x3ea3af41	0.31969646
17	0xbda95524	-0.082681924
18	0xbe7f20e9	-0.24914898
19	0x3edd3249	0.43202427
20	0xbe25e70f	-0.16201423
21	0x3ed02862	0.4065581
22	0x3f8e2cf8	1.1107473
23	0x3eae8d0f	0.34091994
24	0x3f83e099	1.0302917
25	0x3e70648d	0.23475857
26	0xbddee65a	-0.1088378
27	0x3ee9b5d2	0.4564653
28	0x3e5116ff	0.20418929
29	0x3ed75478	0.42056632
30	0x3ebd5da4	0.36985505
31	0x3f3d32d5	0.7390569
32	0xbe4324e8	-0.19057047
33	0x3e04631c	0.12928432
34	0x3fc27bac	1.5193992
35	0x3eab96e1	0.3351355
36	0x3e2f22fe	0.17103192
37	0xbf61c43b	-0.8819005
38	0x3e60b225	0.21942957
39	0x3f0d65a8	0.5523324

backbone.1.layers.0.bn.running_mean f4 [40]
0	0x3f5d2e05	0.86398345
1	0x3c437a7d	0.011931059
2	0xbedc8628	-0.43071103
3	0xbf672913	-0.9029705
4	0x3d997aae	0.074941024
5	0xbf5c649d	-0.86091024
6	0xbfa4e599	-1.2882568
7	0x3e293eea	0.16527906
8	0x3e3e940c	0.18611163
9	0xbfdb6758	-1.7140913
10	0x3ea88857	0.3291652
11	0x3fd2e602	1.6476443
12	0x3f264071	0.6494208
13	0x3fa612f9	1.297454
14	0xbf0e77b0	-0.5565138
15	0x3eafa6be	0.34306902
16	0x3f8d0b4a	1.101907
17	0x3f7a1cd6	0.9770025
18	0xbe665194	-0.22492057
19	0xbea5d103	-0.32386026
20	0xbf93660a	-1.1515515
21	0x3de64dcb	0.112453066
22	0xbd7056e7	-0.058676627
23	0xbf5eeadf	-0.87077135
24	0x3ede110d	0.43372384
25	0xbfccd4db	-1.6002458
26	0x3eab8a34	0.33503878
27	0xbf507bc1	-0.81438833
28	0xbf97ee1f	-1.1869544
29	0x3e1fa9e4	0.15592152
30	0x3f405239	0.7512546
31	0x3fbc1a49	1.4695522
32	0xbfb2cdf6	-1.3969104
33	0x3fa3a0e6	1.2783477
34	0xbecf73ab	-0.40517935
35	0xbf258115	-0.6465009
36	0xbcb7659f	-0.022387324
37	0x3f04c540	0.5186348
38	0xbeb037ed	-0.34417668
39	0xbed15f7d	-0.40893164

backbone.1.layers.0.bn.running_var f4 [40]
0	0x4055364d	3.3314393
1	0x3e3c4929	0.18387283
2	0x3e58f1f6	0.21186051
3	0x3f854128	1.0410509
4	0x3df37b07	0.118887
5	0x3f9dfba9	1.2342426
6	0x3fd62416	1.6729763
7	0x3ed6ab1d	0.41927424
8	0x3e4f94bb	0.2027158
9	0x3fcdb419	1.6070586
10	0x3ea1c33b	0.31594262
11	0x3f389375	0.721
12	0x3fc5e088	1.5459146
13	0x3e94539d	0.28970042
14	0x3ff37498	1.9019957
15	0x3f83905e	1.0278432
16	0x40aea09a	5.4571047
17	0x3fb2a05e	1.395519
18	0x3eb20bd7	0.34774658
19	0x3f732741	0.9498177
20	0x3f9cab6b	1.2239813
21	0x3ca7e9af	0.020497171
22	0x3edf8978	0.43659568
23	0x3fa3705f	1.2768668
24	0x3ea8c25d	0.32960787
25	0x402828cf	2.6274908
26	0x3f25ddcd	0.64791566
27	0x3ece6eee	0.40319008
28	0x3f84f4ad	1.0387169
29	0x3e636494	0.22206336
30	0x3edca9f1	0.43098405
31	0x3fc44a0c	1.5335097
32	0x4063fa3e	3.5621486
33	0x3f664954	0.8995564
34	0x3edabbdb	0.42721447
35	0x3e817dc4	0.25291264
36	0x3eaaed2f	0.33384082
37	0x3f6535a5	0.8953498
38	0x3f0c261b	0.54745644
39	0x3f1532e3	0.5828077

backbone.1.layers.0.dwconv.weight f4 [40, 1, 3, 3]
0	0xbe39084d	-0.18069573
1	0xbe0cdde8	-0.13756526
2	0xbf589f5f	-0.8461818
3	0x3f290a74	0.66031575
4	0x3e8bf43c	0.27334774
5	0xbdceda7c	-0.10100266
6	0x3f3819a7	0.7191414
7	0x3e527031	0.2055061
8	0x3e8acc9c	0.2710923
9	0x3deb3639	0.114849515
10	0x3edb620c	0.4284824
11	0x3d6d3b4a	0.05791787
12	0xbe931407	-0.28726217
13	0x3e7c207c	0.24621767
14	0xbe7fc00e	-0.24975607
15	0xbdf2db46	-0.11858229
16	0xbdebaccb	-0.11507567
17	0xbd41c2fe	-0.0473051
18	0x3e7f8c69	0.24955906
19	0x3d4d4235	0.050111968
20	0xbdd1ec22	-0.10250117
21	0x3e0320d3	0.1280549
22	0x3e19d408	0.1502229
23	0xbecc01ca	-0.39845115
24	0x3f2435f7	0.64144844
25	0x3c9564b9	0.018236505
26	0xbf9e7fff	-1.2382811
27	0x3e93a4bb	0.28836617
28	0xbeb557e6	-0.35418624
29	0x3e7ee26d	0.24891062
30	0xbd874955	-0.06605784
31	0x3f1e06fb	0.617294
32	0xbec9c4a4	-0.39407837
33	0xbdea54be	-0.114419445
34	0xbf89ff98	-1.0781126
35	0xbef6df1c	-0.48217094
36	0x3e9be15a	0.30445367
37	0xbe13365f	-0.1437621
38	0x3e965624	0.29362595
39	0x36e254e4	6.7452074e-06
40	0x3f64e90a	0.8941809
41	0xbf0f066d	-0.5586918
42	0xbd83fde1	-0.06444908
43	0xbd9a2607	-0.075267844
44	0xbf03fd93	-0.515588
45	0x3b48fd6b	0.0030668627
46	0xbd00a5d5	-0.03140815
47	0xbe08cae9	-0.13358654
48	0xbd99d9d7	-0.07512253
49	0xbd62ba99	-0.055353735
50	0xbfa26896	-1.2688167
51	0xbe41a39e	-0.18910071
52	0x3c88c0fb	0.016693583
53	0x3f4e41c3	0.80569094
54	0x3ec01734	0.37517703
55	0xbd8885b5	-0.066661276
56	0xbe1a5805	-0.1507264
57	0xbd2f4d21	-0.042798165
58	0xbff96c5e	-1.9486196
59	0xbe533768	-0.20626605
60	0x3d279d81	0.04092169
61	0xbed59e91	-0.4172254
62	0xbd0d8a30	-0.034555614
63	0xbe8a15c5	-0.26969734
64	0xbe05fd11	-0.13084818
65	0xbc3d6c2b	-0.011561434
66	0x3e93c4fe	0.2886123
67	0x3ea6b0d4	0.32556784
68	0x3f116e9c	0.568094
69	0xbdbba108	-0.09161574
70	0x3da9cec7	0.08291393
71	0xbc61bd15	-0.013777991
72	0xbdb6219d	-0.0889313
73	0x3e9c2814	0.30499327
74	0xbdc5d6bf	-0.096601
75	0x3f1f8e5c	0.623266
76	0xbdfecafd	-0.12441061
77	0xbe25c123	-0.16186957
78	0x3f5951c4	0.8489039
79	0xbea37a92	-0.3192945
80	0xbf147206	-0.57986486
81	0xbd522460	-0.05130422
82	0xbec550be	-0.38538164
83	0xbf9903d7	-1.1954297
84	0x3c9faa18	0.019490287
85	0xbee4dedf	-0.44701287
86	0xbed9a477	-0.4250829
87	0x3e0c6474	0.13710195
88	0x3ec888a1	0.3916674
89	0x3ef25bdf	0.47335717
90	0xbe921f84	-0.2853967
91	0x3f9bfa8b	1.2185835
92	0x3d8d9100	0.06912422
93	0x3df50c73	0.11965265
94	0x3f0c29e2	0.5475141
95	0xbe3ca766	-0.18423232
96	0xbe3dd2ab	-0.18537395
97	0xbe393430	-0.18086314
98	0x3bbeb4af	0.005819879
99	0x3e956c76	0.29184312
100	0x3f3648fe	0.7120513
101	0x3e33f674	0.17574483
102	0xbe75f878	-0.24020565
103	0xbda8794f	-0.08226263
104	0x3e850d0f	0.25986525
105	0x3e29439c	0.16529697
106	0x3f3b35b6	0.7312883
107	0x3f007cb1	0.50190264
108	0xbe8dc3b3	-0.2768837
109	0xbd878930	-0.06617963
110	0x3e8a5550	0.27018213
111	0x3ed5b328	0.41738248
112	0x3e6d7e5f	0.23192738
113	0x3f0606a3	0.52353877
114	0x3e28c13f	0.16479968
115	0xbf2fd0eb	-0.6867816
116	0x3e297968	0.16550219
117	0x3e8349aa	0.2564214
118	0x3d69d4ba	0.057087637
119	0xbe8c0a58	-0.27351642
120	0x3edd5bb6	0.43234032
121	0x3f14186d	0.5784977
122	0x3e7f825a	0.24952069
123	0xbe88d1e6	-0.2672264
124	0xbe8dfb5d	-0.27730837
125	0x3eee8bbb	0.4659098
126	0x3e35ec7b	0.17765991
127	0x3db8e0c4	0.09027246
128	0x3eb4f035	0.35339513
129	0xbe7a45ff	-0.24440764
130	0x3f4b0513	0.7930462
131	0x3d431689	0.047628913
132	0xbf1a69a1	-0.60317427
133	0xbf20d71c	-0.6282823
134	0xbf0c931c	-0.5491197
135	0x3dd06ab6	0.101766035
136	0xbe84cd22	-0.25937754
137	0xbe8ef197	-0.27918693
138	0x3e8830c8	0.26599717
139	0xbd9142fd	-0.07092855
140	0xbdfdb142	-0.12387325
141	0x3f5265dd	0.8218668
142	0x3f156da4	0.58370423
143	0xbe689c4c	-0.22715873
144	0x3eed750f	0.4637837
145	0xba343132	-0.0006873786
146	0xbdc437f3	-0.09580984
147	0x3e645f92	0.22302082
148	0x3cbe6154	0.023239769
149	0x3e9e6f28	0.3094418
150	0x3edd3371	0.4320331
151	0x3f2506d4	0.64463544
152	0x3f0b2391	0.54351145
153	0xbe3e736e	-0.1859872
154	0x3e30b112	0.17255047
155	0x3d9b33b0	0.07578218
156	0xbe2a94b1	-0.16658284
157	0x3f47c68f	0.7803735
158	0x3eaf7653	0.34269962
159	0xbf0aecfc	-0.5426786
160	0x3ed8f89b	0.4237717
161	0xbdb1a731	-0.08674467
162	0xbe8cb767	-0.27483675
163	0xbe64672c	-0.22304982
164	0xbd089adc	-0.03335081
165	0xbe7c7de5	-0.246574
166	0xbe318854	-0.17337161
167	0xbe9566ec	-0.29180086
168	0x3dfff6df	0.12498259
169	0x3df8f7a8	0.12156612
170	0x3e2070f2	0.15668085
171	0x3f3f7a95	0.7479642
172	0x3e874e31	0.26426843
173	0xbd9f6c7e	-0.07784365
174	0x3d954702	0.07288934
175	0xbe9646b6	-0.29350823
176	0x3dff17a8	0.12455684
177	0xbf196bf8	-0.5993037
178	0xbf0d5b14	-0.552171
179	0xbe952a6b	-0.29133925
180	0xbd9f9f0f	-0.0779401
181	0x3c6148bb	0.01375025
182	0xbec3f7fd	-0.38275138
183	0xbf0f3462	-0.55939305
184	0xbeed9284	-0.46400845
185	0xbc7a5742	-0.015279593
186	0xbee78787	-0.45220587
187	0xbeffa094	-0.499272
188	0xbfd707f5	-1.6799303
189	0xbf0cf677	-0.55063576
190	0xbd618df5	-0.05506702
191	0xbe73a481	-0.23793222
192	0xbe08673b	-0.1332063
193	0x3f16d76b	0.5892245
194	0x3c4b910b	0.012424718
195	0xbe93c41a	-0.2886055
196	0x3f131d62	0.5746671
197	0x3ebe4dd5	0.37168756
198	0x3e11f846	0.14254865
199	0xbf411c8b	-0.7543418
200	0xbeea6fa0	-0.45788288
201	0xbdad5bb8	-0.084647596
202	0x3e31e82f	0.17373727
203	0xbe758c6d	-0.2397935
204	0x3f4ae9d6	0.79263055
205	0x3dfac9e7	0.12245541
206	0x3dff46d8	0.12464684
207	0x3ec8226a	0.39088756
208	0xbe3dba40	-0.1852808
209	0xbe69e2e6	-0.22840461
210	0x3f0eebde	0.55828655
211	0xbf1d9382	-0.61553204
212	0xbf48a54c	-0.78377223
213	0xbf194a26	-0.59878767
214	0x3cd5d4fa	0.026102532
215	0x37c157c0	2.3048255e-05
216	0xbedc5b3d	-0.4303836
217	0x3ee9ced0	0.45665598
218	0x3f0c71f2	0.54861367
219	0xbc61c67c	-0.0137802325
220	0xbdec9912	-0.11552633
221	0x3f128707	0.57237285
222	0xbe335718	-0.17513692
223	0xbd27a1f7	-0.040925946
224	0xbebbc476	-0.36673325
225	0xbe0ae7b7	-0.13564955
226	0xbbf003c4	-0.0073246676
227	0xbd824c18	-0.0636217
228	0xbe86d953	-0.2633768
229	0xbf4d7097	-0.80249923
230	0xbf178f2c	-0.5920284
231	0xbdea18e6	-0.1143053
232	0xbec6ea4b	-0.38850626
233	0xbdb460ab	-0.088075005
234	0x3e9751ad	0.295545
235	0xbd0b435e	-0.033999793
236	0x3e1e486e	0.15457317
237	0x3e637cde	0.22215602
238	0x3c8cae47	0.017172946
239	0x3e40abec	0.18815583
240	0x3e1added	0.1512372
241	0x3d2620a9	0.04055849
242	0x3ea08ebe	0.31358904
243	0xbd00bf83	-0.03143264
244	0xbd333ed1	-0.04376108
245	0x3c7fd389	0.015614399
246	0xbf6218d5	-0.8831914
247	0x3e867a63	0.2626525
248	0xbf77b298	-0.9675689
249	0x3e9e3e09	0.30906704
250	0xbeca5444	-0.39517415
251	0x3d95b5a6	0.07310037
252	0xbec6ddca	-0.38841087
253	0x3e3989c0	0.18118954
254	0xbf7d3184	-0.9890368
255	0xbf99bfff	-1.2011718

backbone.1.layers.0.dwconv.bias f4 [40]
0	0x3aa9cd8e	0.0012954937
1	0x3b719de3	0.003686779
2	0xbc719270	-0.014744386
3	0xbb8d989f	-0.0043211724
4	0x3c2e2b19	0.0106303925
5	0xbc392450	-0.0113001615
6	0xbc578a26	-0.013155496
7	0xbb1335c2	-0.0022462462
8	0x39b1d52d	0.000339189
9	0xb9ebbc4b	-0.00044962982
10	0x3b824b5b	0.003976268
11	0x3b9026d6	0.004399161
12	0x3aeae7e0	0.0017921887
13	0xbb7906b9	-0.0037998392
14	0xbc18178d	-0.009282959
15	0xb9f32e0b	-0.00046382876
16	0x3aefeda6	0.0018305078
17	0x3aa97b40	0.0012930408
18	0x3ad3331a	0.0016113252
19	0xbb9e3216	-0.004827748
20	0xbc024c48	-0.007952757
21	0x3ca767e5	0.020435283
22	0xbb895fa5	-0.00419231
23	0xbb83de67	-0.004024315
24	0xbc85e02d	-0.016342247
25	0x3b67805b	0.0035324309
26	0xba294f03	-0.0006458612
27	0xbaa6ccd1	-0.0012725835
28	0xbb63cec4	-0.0034760693
29	0xbba70140	-0.0050965846
30	0xb9f98360	-0.00047590863
31	0x3b53060d	0.0032199651
32	0x3881936e	6.17866e-05
33	0xbadaecc8	-0.0016702646
34	0xbb742455	-0.00372531
35	0x3a404645	0.000733469
36	0x3c54fa42	0.012999119
37	0x3a172988	0.00057663815
38	0x3b1c9ac0	0.002389595
39	0x3b554613	0.0032542988

backbone.1.layers.1.bn.weight f4 [40]
0	0x3fa0de5d	1.256786
1	0x3f2ff7e6	0.6873764
2	0x3f67c4f9	0.9053493
3	0x3fadd97c	1.3581996
4	0x3d1b1a20	0.03786671
5	0x3f1ae2ba	0.6050221
6	0x3f93fd97	1.1561764
7	0x3e964a5a	0.293536
8	0x3f965d77	1.1747273
9	0x3f1d1572	0.6136085
10	0x3e888829	0.26666382
11	0x3f979a70	1.1844006
12	0x3fc4f490	1.5387135
13	0x3f7d37c6	0.9891323
14	0xbe8abd32	-0.2709747
15	0x3f4d37ab	0.8016307
16	0x3f1e6a05	0.6188052
17	0x3f3245f1	0.6963797
18	0x3e862985	0.26203552
19	0x3f731655	0.9495595
20	0x3fe065a4	1.7531018
21	0x3f904c9a	1.1273377
22	0x3f8863f7	1.0655507
23	0x3fd853e4	1.6900601
24	0x3fabead0	1.3431034
25	0x3f2266a5	0.63437873
26	0x3f6662b0	0.89994335
27	0x3fab1b84	1.3367772
28	0x3ff58193	1.9180168
29	0x3f38fd2c	0.7226131
30	0x3ec50bc8	0.3848555
31	0x3f6d4716	0.92686594
32	0x3f34a2d2	0.70560944
33	0x3f2892bd	0.65848905
34	0x3ec27114	0.37976897
35	0x3eedc7db	0.4644154
36	0x3f5448a2	0.8292333
37	0x3f1d3b03	0.6141817
38	0x3fd6fec9	1.6796504
39	0x3f777417	0.96661514

backbone.1.layers.1.bn.bias f4 [40]
0	0x3f4a284e	0.7896775
1	0x3e02e212	0.12781551
2	0x3da3f6fc	0.08006093
3	0x3d9d43ab	0.07678922
4	0x3e0d37ce	0.13790819
5	0x3f0b5961	0.54433256
6	0x3f0255ad	0.5091198
7	0xbed36a84	-0.41292202
8	0x3ecb1b2a	0.39669162
9	0x3eaee530	0.3415923
10	0xbe014b0b	-0.12626283
11	0x3ed625d8	0.41825747
12	0x3fac95d7	1.3483227
13	0x3def296d	0.11677823
14	0xbdc83434	-0.09775582
15	0x3ed523f3	0.4162899
16	0xbe11106b	-0.14166419
17	0x3ca3db2d	0.020001972
18	0xbe348eef	-0.1763265
19	0x3e85464f	0.26030204
20	0xbee3b3bd	-0.44473067
21	0x3b8f03ab	0.004364451
22	0x3dfc54c9	0.12320859
23	0x3e340a22	0.1758199
24	0x3ebcac03	0.36849985
25	0x3e7ff4f7	0.2499579
26	0xbe1597d3	-0.14608698
27	0x3ea2d171	0.31800416
28	0x3e686b11	0.22697093
29	0x3e7ba717	0.24575458
30	0x3f339ec3	0.70164126
31	0x3f0b0ac9	0.5431333
32	0xbede9b1e	-0.4347772
33	0x3dfb4756	0.122694656
34	0xbee029c7	-0.43781874
35	0xbbb4cd21	-0.0055176173
36	0xbda88092	-0.08227648
37	0xbf0bef03	-0.5466158
38	0x3e66c14c	0.22534674
39	0xbd910c76	-0.07082455

backbone.1.layers.1.bn.running_mean f4 [40]
0	0x3f9f54e7	1.2447785
1	0xbf029382	-0.5100633
2	0x403618a2	2.8452535
3	0x3f2bb853	0.6707813
4	0xbf1d01f5	-0.6133111
5	0x3fd88eca	1.6918576
6	0xbf9acc7d	-1.2093655
7	0x3d948c5c	0.07253334
8	0xbfcc5215	-1.596255
9	0x40567db3	3.351422
10	0x3f23de53	0.64011115
11	0x40746e4a	3.8192315
12	0x3c1a52c6	0.009419149
13	0x4011832a	2.2736306
14	0x3ed27d68	0.41111302
15	0xbedc00de	-0.42969412
16	0xbef2c1d5	-0.47413507
17	0x3e9b1419	0.3028877
18	0x3e8fe74b	0.2810615
19	0x4020594c	2.5054502
20	0xbf1345d0	-0.575284
21	0x4007d7ed	2.122554
22	0x3fd1cf08	1.6391306
23	0x3f12a2f4	0.57279897
24	0x409cee57	4.904094
25	0xbe3446fd	-0.17605205
26	0x3e9c038f	0.30471465
27	0xc00687b0	-2.1020317
28	0xbf881002	-1.0629885
29	0x3e47af46	0.19500455
30	0xc04663f2	-3.0998502
31	0x3f2862da	0.65775836
32	0x3ddc7294	0.107640415
33	0xbf6d38f0	-0.92665005
34	0xbfd63189	-1.6733867
35	0x3f8fd37f	1.1236418
36	0x3f42d2bf	0.76102823
37	0x3ec3ab4f	0.38216636
38	0xc009720e	-2.1475863
39	0xbf57d5db	-0.8431069

backbone.1.layers.1.bn.running_var f4 [40]
0	0x40d86cab	6.763265
1	0x3f86bc55	1.0526224
2	0x3f8ef4a1	1.1168405
3	0x4023b15d	2.5577004
4	0x3ebcdfcf	0.36889502
5	0x3fa1494a	1.2600491
6	0x3e5257e8	0.20541346
7	0x3ebd2a67	0.36946413
8	0x4070840a	3.758059
9	0x3fe3166e	1.774122
10	0x3f5b28af	0.85608953
11	0x40c635b0	6.1940536
12	0x3f6a79c0	0.91592026
13	0x3fac5b38	1.3465338
14	0x3ec5d21e	0.3863687
15	0x3f8aba32	1.0838072
16	0x3f933d88	1.1503153
17	0x3fafd8fa	1.3738091
18	0x3ed5569a	0.41667634
19	0x4058457e	3.3792415
20	0x3f3a1fd6	0.7270483
21	0x40aa5c9a	5.323804
22	0x4003494c	2.0513487
23	0x3f8157d1	1.0104924
24	0x4189f15d	17.242853
25	0x3fb012c2	1.3755724
26	0x3f22a7ca	0.63537276
27	0x3fa541c5	1.2910696
28	0x3fbc73c3	1.4722828
29	0x3fd976ed	1.6989418
30	0x402ad747	2.6693895
31	0x3fe1a90c	1.7629714
32	0x3e6d6666	0.23183593
33	0x3f62db25	0.8861564
34	0x3f8f3928	1.1189318
35	0x3f87803e	1.0586011
36	0x4025390d	2.581607
37	0x3f121a9f	0.5707187
38	0x402df04f	2.7177923
39	0x401c531f	2.4425733

backbone.1.layers.1.dwconv.weight f4 [40, 1, 3, 3]
0	0xbeed0713	-0.4629446
1	0xbf288a6c	-0.65836215
2	0x3e810fe1	0.25207427
3	0x3f0c3c06	0.5477909
4	0x3f3fc215	0.7490552
5	0x3f0ed847	0.55798763
6	0xbe0ab020	-0.13543749
7	0x3def9603	0.11698534
8	0xbd3a4b92	-0.045482226
9	0x3ea33b0b	0.31880984
10	0x3e075abf	0.1321821
11	0xbf3f2b68	-0.7467561
12	0x3e5e9e23	0.21740012
13	0x3bb81aff	0.0056184526
14	0xbefb2932	-0.49054867
15	0x3e371a36	0.17881092
16	0xbde35cf8	-0.11101717
17	0xbeb4f6ee	-0.35344642
18	0x3e009e0b	0.12560289
19	0xbeeb7e82	-0.45994955
20	0x3d3a1a96	0.04543551
21	0x3dd84095	0.10559193
22	0x3eca8d38	0.39560866
23	0x3eebb05e	0.46032995
24	0x3eeee951	0.4666238
25	0x3f8e72b8	1.1128759
26	0x3ed2d403	0.41177377
27	0xbe509d3f	-0.20372485
28	0x3d3cd283	0.046099197
29	0x3f2a91c5	0.66628677
30	0x3f15b8a1	0.58484846
31	0x3f243afb	0.641525
32	0x3da79abd	0.08183811
33	0xbf280b06	-0.6564182
34	0xbe800ae6	-0.25008315
35	0xbe98d1cd	-0.29847565
36	0x3dfd66fb	0.123731576
37	0xbe23f2b7	-0.16010557
38	0x3d3b6fb6	0.045760833
39	0xbb4e172f	-0.0031446924
40	0xbe12649c	-0.14296192
41	0xbdb24912	-0.08705343
42	0xbe0e5a40	-0.13901615
43	0xbd93e8c5	-0.07222132
44	0xbe849db7	-0.25901577
45	0x3e8bc098	0.27295375
46	0x3d7ee7a5	0.062232632
47	0x3e9b050c	0.30277288
48	0xbf0f6e41	-0.5602761
49	0x3faa95bd	1.3326946
50	0xbe37959d	-0.17928167
51	0x3d6e2b78	0.058146924
52	0x3e2203e5	0.15821798
53	0xbe174a93	-0.14774542
54	0xbf8549d1	-1.0413152
55	0xbf0763b5	-0.52886516
56	0x3ee956b4	0.45573962
57	0xbf296326	-0.66166914
58	0x3dee8547	0.116465144
59	0x3d7a66fe	0.061133377
60	0x3ede2f51	0.43395475
61	0x3ea864f8	0.32889533
62	0xbe3ac856	-0.18240485
63	0xbe4fc7c7	-0.20291053
64	0xbd9357fe	-0.071945176
65	0xbd62af39	-0.055342887
66	0x3e588302	0.21143726
67	0x3df1316a	0.11777003
68	0x3ecdd87d	0.4020423
69	0xbd93e217	-0.072208576
70	0xbdac5215	-0.084140934
71	0xbbcaa617	-0.0061843502
72	0x3dc6ba42	0.097034946
73	0x3ea0c728	0.31401944
74	0xbf149cb3	-0.58051604
75	0x3ea542f3	0.3227764
76	0x3e833267	0.2562439
77	0xbf8bd6a5	-1.0924879
78	0x3cc76cad	0.024343813
79	0xbe4f4af6	-0.20243439
80	0xbef56a8f	-0.4793286
81	0x3f0927ff	0.53576654
82	0xbda02889	-0.078202315
83	0x3e969e8d	0.2941784
84	0xbdaeecd7	-0.08541267
85	0xbe3d7576	-0.18501839
86	0xbd7e7d36	-0.06213113
87	0x3eac18b4	0.33612597
88	0x3e12fd7f	0.14354514
89	0x3f9e446e	1.2364633
90	0x3e6c427a	0.23072234
91	0x3edf2625	0.4358379
92	0x3f417cd3	0.7558109
93	0x3e2c843a	0.16847315
94	0xbd23929e	-0.039934747
95	0x3c7c5e3b	0.015403326
96	0xbe033c99	-0.12816085
97	0xbecefab5	-0.4042565
98	0x3ce66ce3	0.028128093
99	0x3e0dbe3e	0.13842103
100	0x3eeae769	0.45879677
101	0x3e76c5af	0.24098848
102	0x3d28a5da	0.041173793
103	0x3f0be112	0.54640305
104	0x3effdffe	0.4997558
105	0xbcde5a30	-0.027142614
106	0x3ee68fd8	0.4503162
107	0x3eabffd0	0.33593607
108	0x3e054a70	0.13016677
109	0xbe1452a6	-0.14484653
110	0x3e3b0668	0.18264163
111	0x3e2ccb45	0.16874416
112	0x3ea1a80f	0.3157353
113	0x3f147806	0.5799564
114	0xbec48baa	-0.38387805
115	0xbf17390f	-0.5907144
116	0xbe739983	-0.23789029
117	0x3db46ed2	0.088102
118	0xbe8c80b8	-0.27441955
119	0xbdeb7888	-0.11497599
120	0x3e85064f	0.25981376
121	0x3e9abfd1	0.3022447
122	0xbeb42378	-0.3518331
123	0x3e290e15	0.16509278
124	0x3f32e4c3	0.6988031
125	0x3f02ffa4	0.51171327
126	0xbcb104ed	-0.021608794
127	0xbcdfdda3	-0.027327364
128	0x3cf4d488	0.029886499
129	0x3e441def	0.19152044
130	0x3e447e99	0.19188918
131	0xbe5d35e7	-0.21602593
132	0xbedc7f74	-0.4306599
133	0x3db53fca	0.088500574
134	0x3eba8fa5	0.36437717
135	0xbdd7068e	-0.10499297
136	0xbecc9305	-0.39955917
137	0xbebd89f9	-0.37019327
138	0x3e884ead	0.26622525
139	0xbedb791b	-0.42865834
140	0xbe7099c0	-0.23496151
141	0x3d6087be	0.054816954
142	0x3ee0b266	0.43886107
143	0x3e8907e0	0.2676382
144	0x3e67059a	0.2256073
145	0xbc4fafa5	-0.012676154
146	0x3e021a37	0.12705313
147	0xbe321631	-0.17391278
148	0xbe9bb6db	-0.30412945
149	0xbe007ab5	-0.12546809
150	0x3ce0fda3	0.027464693
151	0xbd4379fb	-0.04772375
152	0xbe5a26cb	-0.21303861
153	0xbe9450f9	-0.28968027
154	0x3f179a4d	0.5921982
155	0x3e8b99ca	0.2726577
156	0xbec2abe6	-0.38021773
157	0x3e8640cf	0.2622132
158	0xbd7147d8	-0.058906406
159	0xbe3956ed	-0.18099566
160	0x3eb32606	0.34989947
161	0xbec4da74	-0.38447917
162	0xbba2121d	-0.004946007
163	0x3e5f50e6	0.21808204
164	0x3e54ccc1	0.20781232
165	0xbbebc7fb	-0.0071954704
166	0xbb82b308	-0.0039886273
167	0xbc108701	-0.00882125
168	0x3e8a0f10	0.26964617
169	0x3e5ff51f	0.2187085
170	0x3e011f6f	0.12609647
171	0x3e78c00f	0.24292015
172	0x3f3c5152	0.73561585
173	0x3f1cdf1e	0.6127795
174	0x3f1b4d72	0.6066505
175	0x3eaf6bbb	0.3426188
176	0x3e37ddbb	0.17955677
177	0x3cafa48c	0.021440767
178	0xbe8ab37e	-0.27090067
179	0xbe58aef1	-0.21160485
180	0xbd9d0076	-0.076661035
181	0xbe8359ef	-0.2565455
182	0x3b727f88	0.0037002284
183	0xbfb225f6	-1.3917835
184	0xbf21cd5f	-0.63203996
185	0xbe890b83	-0.26766595
186	0x3f0432eb	0.51640195
187	0x3f13d1ce	0.5774201
188	0xbe9839ac	-0.297315
189	0x3f356b9a	0.7086731
190	0x3ee27438	0.44229293
191	0xbeec85e1	-0.46195891
192	0x3f3aa9db	0.7291543
193	0x3efd5186	0.4947626
194	0xbee1ecde	-0.44126028
195	0x3e5c7068	0.21527255
196	0x3ef7151f	0.48258302
197	0x3d8d0894	0.06886402
198	0x3e70f1a5	0.2352968
199	0x3f60c0d2	0.8779422
200	0xbdf4ccd2	-0.11953129
201	0x3f298c4c	0.662297
202	0xbdd90fde	-0.105987296
203	0xbd48931b	-0.048968416
204	0x3e0381a5	0.12842424
205	0xbea8ee9a	-0.3299454
206	0xbe9c0407	-0.30471823
207	0x3ea7dbde	0.32784933
208	0x3f19c215	0.6006177
209	0x3e533a71	0.20627762
210	0xbf2f1bba	-0.6840168
211	0x3ec0e134	0.37671816
212	0xbd955e0e	-0.0729333
213	0xbf0ffdd3	-0.5624668
214	0xbe536e3e	-0.20647523
215	0x3f0b434e	0.54399574
216	0xbeb7f2de	-0.3592748
217	0x3ee52f20	0.44762516
218	0xbe6cdb66	-0.23130569
219	0x3db23338	0.087011755
220	0x3eef3a6c	0.4672426
221	0x3daf8c65	0.085717
222	0x3f36ab0b	0.7135474
223	0x3f5b6036	0.8569368
224	0x3ea1aac1	0.31575587
225	0xbea684c5	-0.3252317
226	0x3e861aa9	0.26192215
227	0x3e6e01cf	0.23242877
228	0x3f2c7691	0.6736842
229	0x3e56d5a3	0.20979933
230	0x3e01dfaf	0.12682985
231	0xbee5597d	-0.44794837
232	0xbeda7251	-0.42665341
233	0xbee940ea	-0.45557338
234	0x3e8ed681	0.27898028
235	0xbe557ad7	-0.20847641
236	0xbc568817	-0.01309397
237	0x3e9f5e44	0.31126606
238	0xbeb74469	-0.3579438
239	0x3e47167f	0.19442175
240	0x3e6edfdb	0.23327582
241	0x3ee53fe7	0.44775316
242	0x3d821999	0.063525386
243	0xbe472fbf	-0.19451807
244	0xbe9c4a9f	-0.3052568
245	0xbd25c0c7	-0.04046705
246	0xbf396dc0	-0.7243309
247	0x3f2935e9	0.66097885
248	0xbf5af5b6	-0.85531175
249	0xbed8f08f	-0.42371032
250	0xbedc3910	-0.43012285
251	0x3ea0aaf5	0.3138043
252	0xbd32ee74	-0.043684438
253	0xbe5d13eb	-0.2158963
254	0x3ea70381	0.3261986
255	0x3bb52a6f	0.00552874

backbone.1.layers.1.dwconv.bias f4 [40]
0	0xbb96698f	-0.0045902203
1	0x39f1f59d	0.00046150098
2	0x3b9605a8	0.004578311
3	0xbb069d15	-0.0020540406
4	0x3b0c697e	0.0021425183
5	0x3ae9161b	0.0017783077
6	0x3b097d9f	0.0020979417
7	0xbb09221c	-0.0020924872
8	0xbb4368e6	-0.0029817163
9	0x39bb2894	0.00035697652
10	0xbb2b01dc	-0.0026093638
11	0x39a4ef3a	0.00031458755
12	0x3b5254dd	0.003209404
13	0xbb96b6cb	-0.0045994273
14	0x3a26c568	0.0006361813
15	0x3b011d03	0.001970113
16	0xbae4670b	-0.0017425729
17	0x3ac0ab55	0.0014699498
18	0x3a9dbdd1	0.0012034719
19	0xbb622b6e	-0.003451075
20	0x3c0977f7	0.008390418
21	0x3ac11014	0.0014729523
22	0xb9fda051	-0.00048375365
23	0x3924b7ab	0.0001570868
24	0xba91e3e6	-0.0011130541
25	0x3b236b51	0.0024935792
26	0xbb0886b1	-0.0020832235
27	0xbc1c1066	-0.009525394
28	0x3bcf1916	0.006320129
29	0x3745b7d5	1.1784917e-05
30	0x3aac5b82	0.001314983
31	0x3a1bdefb	0.00059460074
32	0x3b6b6eda	0.0035924227
33	0x3b44b533	0.003001523
34	0xb9312610	-0.00016894215
35	0xbb2b4304	-0.0026132474
36	0x3aba1b1f	0.0014198757
37	0x3b56da22	0.0032783826
38	0xbbbdce3b	-0.005792407
39	0xbb91516e	-0.004434756

backbone.1.layers.2.bn.weight f4 [40]
0	0x3f8a572e	1.0807855
1	0x3f246c13	0.6422741
2	0x3f93fb73	1.1561111
3	0x3f75184a	0.9574019
4	0x3f2a7bea	0.6659533
5	0x3ef6be98	0.48192286
6	0x4004fb8f	2.077854
7	0xbd825ef5	-0.06365768
8	0x3f41c920	0.7569752
9	0x4015e43c	2.3420553
10	0x3f672547	0.90291256
11	0x3c84b678	0.01620029
12	0x3f5a91cd	0.85378724
13	0x3f599385	0.8499072
14	0x3fc7ed25	1.5619246
15	0x3f368d07	0.7130894
16	0x3f4e07ba	0.8048054
17	0x3f22b89f	0.6356296
18	0x3e90c460	0.28274822
19	0x3f3c540b	0.7356574
20	0x3f10c219	0.5654617
21	0x3f92ee46	1.1478965
22	0x3f3f0a0e	0.7462472
23	0x3f356258	0.70853186
24	0x3f30160a	0.6878363
25	0x3c695391	0.014241115
26	0x3f249008	0.64282274
27	0x3fa11f63	1.2587703
28	0x3f2dab90	0.6783991
29	0x3f6267d2	0.8843967
30	0x3f6191cd	0.881131
31	0x3eb3d32d	0.35122052
32	0x3fa5bbdd	1.2947956
33	0x3e86c1cc	0.2631973
34	0x3fc233cb	1.5172056
35	0x3f24cc84	0.64374566
36	0x3f705292	0.9387599
37	0x3fbe1d88	1.4852762
38	0x4019f4ff	2.4055784
39	0x3f71e512	0.9449016

backbone.1.layers.2.bn.bias f4 [40]
0	0x3ea7a43e	0.32742494
1	0x3e99d51c	0.30045402
2	0x3e49a974	0.19693547
3	0xbe816da9	-0.25278977
4	0x3db4a36c	0.08820233
5	0x3f38f1b4	0.7224381
6	0x3e9a4af9	0.30135325
7	0x3d1c895f	0.038216945
8	0x3f180b46	0.593922
9	0x3eabf7d2	0.3358751
10	0x3f387e1a	0.72067416
11	0x3c54d790	0.012990847
12	0xbd6a6658	-0.05722651
13	0x3e027a61	0.12741996
14	0x3f89cb19	1.0765105
15	0xbed1452a	-0.4087308
16	0xbe3c549e	-0.18391654
17	0xbe268374	-0.16261083
18	0xbeec928c	-0.46205556
19	0x3f347c8b	0.7050254
20	0xbe440d92	-0.19145802
21	0xbd9e21e0	-0.07721305
22	0x3d4adaef	0.049525198
23	0xbb8750d7	-0.00412951
24	0x3f14690d	0.57972795
25	0x3c881049	0.016609328
26	0xbe019568	-0.1265465
27	0x3de262b2	0.11053981
28	0x3f54cd69	0.8312593
29	0x3e436adc	0.19083732
30	0x3e389b8e	0.1802809
31	0x3f1866b4	0.5953171
32	0xbe55c583	-0.20876126
33	0xbb545057	-0.003239652
34	0x3d944dc3	0.07241394
35	0x3f2ac154	0.66701245
36	0x3f060d54	0.5236409
37	0x3ebd42f6	0.3696515
38	0x3e1c5d9e	0.15270087
39	0xbc90ad3f	-0.017660735

backbone.1.layers.2.bn.running_mean f4 [40]
0	0x3f555609	0.83334404
1	0xbf506a3d	-0.81412107
2	0xbf561435	-0.83624583
3	0x3fc63749	1.5485622
4	0x3ec3d545	0.3824865
5	0x409c7820	4.8896637
6	0x401e11b1	2.4698298
7	0x3dacf4f0	0.084451556
8	0x40821f07	4.0662875
9	0xc073a5dc	-3.8069983
10	0xbc407b98	-0.011748217
11	0x3d7f847d	0.06238221
12	0xbff07caa	-1.8788044
13	0x3f9b8963	1.2151302
14	0x3ff80c49	1.9378749
15	0x4005d12f	2.0908926
16	0x3e034772	0.12820223
17	0x40178d68	2.3680058
18	0x3e3fbf71	0.18725373
19	0x40a485ef	5.1413493
20	0xbef6412a	-0.4809659
21	0x4043e584	3.0608835
22	0x404893d5	3.134023
23	0x3f24c262	0.64359105
24	0x3fa03bc9	1.2518245
25	0xbe393679	-0.18087186
26	0xbdaaf027	-0.08346587
27	0xbf590a76	-0.8478159
28	0x3fc392a6	1.5279129
29	0x3f01b8a7	0.5067238
30	0x3debfa73	0.11522379
31	0x3f25e7d8	0.6480689
32	0xbc8ff324	-0.017571993
33	0x3fa02322	1.2510722
34	0xc00a3422	-2.159432
35	0x3fbe0f0b	1.4848341
36	0xbe698628	-0.22805083
37	0xbf9e392c	-1.2361197
38	0xbd9cb88b	-0.07652386
39	0x3f37aa1a	0.7174393
