src/ckpts/TakuNet_AIDERV2.ckpt (torch, 627138 bytes, 488 tensors)

backbone.0.stem.0.weight f4 [40, 3, 3, 3]
00000000: 7c3d 06bf a5bb edbe bebe 3cbf 3bc5 73be
00000010: ffec bc3e 853c 9cbd 5f09 aabd cff6 b83e
00000020: 37c4 de3e d249 05bf f161 0cbf 575b 40bf
00000030: 412e 22bd 666e 933e de8a 8d3d 6ec7 7a3e
00000040: 540b ff3e fb45 113f a8b1 04bf 7413 f4be
00000050: 50be 11bf 85dd f8bd 6c1d 073f 711e bf3d
00000060: e4d0 0e3e 7620 693f 6e62 793f 0ccf 38be
00000070: 3bd7 9abf 6df2 49bf 0609 83be 2361 b2bf
00000080: 4716 4abf 8fa5 d63c 021a 27bf 755f babe
00000090: 4a6e 773d 7541 f43d 6cc8 3fba 6549 4abd
000000a0: 9ed2 eb3d b46c a4bd c1f8 63bd d413 4b3e
000000b0: 61da 863e 4e2b 5b3d c240 963f f3b5 573f
000000c0: 7367 ae3e be9c a73f 84e2 703f 645f 20bd
000000d0: 9c10 013f 2e0a c43d dd44 863d 2ba7 f4bd
000000e0: 7c51 c63e 2126 5c3d dfa8 153e 9f4b 943e
000000f0: 19d4 3abe 9888 45be b42d 20bd 5948 a93e
00000100: 941d cc3e 36f2 e13d 2518 af3f 63ae b23f
00000110: 0a74 243f b008 1f3f a8cd de3e f094 9c3b
00000120: bb2b a93e c225 c33e 9e1e 32bf 4e33 993f
00000130: 6dc5 b23f b5af c8be 64b3 c93e 3e08 8f3e
00000140: c06e 47bf 6db6 4ebf c95d 5cbf 0a9f 33bf
00000150: fdac 8abf 0f39 eabe 2a0a 0dbf cad9 c3be
00000160: 2581 733e d7f6 e5bd 409e 72be d8ef ccbe
00000170: 8fbd 38be 76a6 cbbe a411 febd 8d8e 97be
00000180: 5bc4 73be 5107 093f 3e2b 14be e67b 183f
00000190: b133 073f 0612 2d3f ba83 2dbd 2cc0 ac3e
000001a0: 09cc 873e 6969 203f 1521 a23f 71f6 163f
000001b0: fc6d ba3e cbb8 36bf 9db6 75bf b334 4a3f
000001c0: 3d0a 8a3e 1999 b5bf e92f ba3e 9018 e63e
000001d0: 72ed d5be 6d88 013f 6e14 c7be 1deb c4bd
000001e0: 16b7 303f 0b5f ed3e aeaf 55bf 9877 e83d
000001f0: 3a86 9a3e de24 61be 805d 193f 35e8 6dbe
00000200: 8f3d 18be 2fbd 143e e813 563e 3faa 9ebe
00000210: fdf5 73be 19e5 d03c a013 9fbe cdc8 553f
00000220: c741 ef3d 0961 4c3e 587e 84bf b3f3 833e
00000230: 258b 403f 4839 d6be b1e8 a2be a869 59be
00000240: 5d69 b13f ae06 8bbc 6dbc 47bf 1dc7 80bf
00000250: a823 ba3c aa1c 4f3f bede 80be 9e93 be3d
00000260: 1633 0dbf a1ee 123f b62a b9be 1324 16bf
00000270: be3f 2abf dc64 4e3e e963 673e aca2 cc3e
00000280: 5ed8 e83e afab 8dbe e01b b0bd 5425 3a3e
00000290: 8f8d 123f e3f4 313e f37d c63e 1f36 3d3f
000002a0: f72c 503e f413 763e c1aa 133f 8b77 58be
000002b0: 4a00 38be e489 6b3e 8045 85be db18 a7bd
000002c0: ce74 383e f733 0cbf aad3 f9bd 0cdc 493e
000002d0: e3dc 55bf 9de7 62bf d294 96bd c9fa 58bf
000002e0: 9b72 54bf a777 92be 6343 a6bf 64bb 7dbf
000002f0: 0c37 6ebe 5b10 e0be 7a1a d8bd e126 e33d
00000300: 13a3 a6be 5d96 8e3e 7107 d83e 3fb8 e2bd
00000310: bbd8 023f f876 163e 9c68 7cbe 90c4 d33c
00000320: 6f3e 80bd c081 04be c9ae d63e e098 c93e
00000330: 98a2 973d 5be0 0a3f 7460 d93d 1f4a 2bbe
00000340: 335e 11bb 31c5 633d 16ce 963a e96e e53e
00000350: c4b7 c03e ec9a af3c fc72 e93e d09b 28bc
00000360: 3912 debe b9ea 54bd cb5b c5be f58f e6be
00000370: 6fc4 02bd f6c6 17bf 83b9 2bbf e9d1 03bf
00000380: 2dff a9be 0bfe 9a3d 9c4f 663f 54f7 f93e
00000390: 7c12 5cbd d41a 5c3f 791d 113d 0b8b 76be
000003a0: 5470 6f3e 9ca4 aa3e 3486 413f 6883 823f
000003b0: bc30 5f3f 99f4 f73e e51f 3c3f e405 e83e
000003c0: f53e b93e 6d6b 19bd 0bad 453f bfb9 0080
000003d0: 0246 0080 36c2 0080 033c 0080 fbba 0000
000003e0: f5be 0080 a7bb 0000 6c6f 0000 0fc3 0000
000003f0: 0bc3 0080 a2a2 0080 8593 0080 fabd 0000
-0.5243757 -0.46432224 -0.7372855 -0.23805706 0.36899564 -0.07628731 -0.08302569 0.361258
0.43509075 -0.52065766 -0.54836947 -0.75139374 -0.039594892 0.28795165 0.069112524 0.24490139
0.4981333 0.56747407 -0.5183358 -0.47671092 -0.5693102 -0.121516265 0.5277927 0.09331978
0.13946873 0.91065156 0.97415817 -0.18047732 -1.2096933 -0.7888554 -0.25592822 -1.3935894
-0.7894024 0.026201991 -0.6527406 -0.36400953 0.060407914 0.119265474 -0.0007315937 -0.0493864
0.115147814 -0.08028546 -0.055657152 0.19831783 0.26338485 0.053508095 1.1738513 0.8426201
0.340633 1.3094709 0.94095635 -0.03915347 0.5041597 0.09572254 0.065561034 -0.11945947
0.38734043 0.0537473 0.146152 0.28963944 -0.18244971 -0.19290388 -0.039106086 0.3306301
0.39866316 0.11032526 1.3679243 1.3959469 0.6423956 0.6212263 0.43516278 0.004778497
0.33041176 0.38114744 -0.6957797 1.1968782 1.39665 -0.39196554 0.39394677 0.27935976
-0.77903366 -0.8074711 -0.86080605 -0.7016455 -1.0834042 -0.45746657 -0.55093634 -0.38252097
0.23779733 -0.112287216 -0.2369318 -0.40026736 -0.18041061 -0.39775437 -0.124057084 -0.29600945
-0.23805372 0.5352679 -0.1446962 0.59564054 0.5281325 0.67605627 -0.042361952 0.33740366
0.26522854 0.62660843 1.2666346 0.5896979 0.36412036 -0.7137572 -0.9598177 0.7898666
0.26960936 -1.4187347 0.36364678 0.44940615 -0.4178272 0.50598794 -0.38882774 -0.09615157
0.69029367 0.46361575 -0.8347119 0.11350936 0.30180532 -0.2198672 0.59908295 -0.23233111
-0.14867233 0.14525293 0.20906031 -0.30989262 -0.23824306 0.025499867 -0.3106966 0.8350952
0.11682468 0.19958891 -1.0351057 0.25771865 0.7521232 -0.41840577 -0.31818154 -0.21231711
1.3860279 -0.016970959 -0.7802189 -1.0060765 0.02272208 0.8090311 -0.2516994 0.093054995
-0.55156076 0.5739537 -0.36165398 -0.58648795 -0.6650351 0.20155662 0.22596706 0.3996786
0.45477575 -0.27670047 -0.08599067 0.18178302 0.5724725 0.17378573 0.38767967 0.7391071
0.20329653 0.24031049 0.57682425 -0.21139352 -0.1796886 0.2300182 -0.26029587 -0.08159038
0.18013307 -0.5476679 -0.12198575 0.19712847 -0.8354017 -0.88634664 -0.07352604 -0.8475767
-0.82987374 -0.28606912 -1.2989315 -0.9911406 -0.23263186 -0.43762478 -0.10551925 0.110914
-0.3254629 0.27849093 0.42193177 -0.110702984 0.51111954 0.1469382 -0.2464928 0.025850564
-0.06261908 -0.1294012 0.41930225 0.39374447 0.07404059 0.5424859 0.106141 -0.16727494
-0.0022181391 0.05560798 0.001150551 0.4481118 0.37640202 0.021436177 0.4559554 -0.010291055
-0.43373278 -0.05198166 -0.38546595 -0.45031705 -0.031925615 -0.59287965 -0.67079943 -0.5149217
-0.33202496 0.07567986 0.89965224 0.4882151 -0.053728566 0.85978436 0.035428498 -0.24076478
0.23382694 0.33328712 0.755954 1.0196352 0.8718374 0.484288 0.7348617 0.45316994
0.36180845 -0.037455965 0.7721717 -6.6633e-41 -2.5114e-41 -6.967e-41 -2.1528e-41 6.7076e-41
-6.8502e-41 6.7317e-41 3.997e-41 6.9974e-41 -6.9968e-41 -5.8342e-41 -5.292e-41 6.8151e-41

backbone.0.stem.0.bias f4 [40]
00000000: 3287 793c f182 55bc d245 76bc f1d4 fe3a
00000010: 8cfc 403c 5e34 39bd f45b 183c 04fb a53b
00000020: 6c99 8e39 ec5e 0080 f2e3 77bd d2ea a13c
00000030: 96e7 f83c 511b 873b 6130 cfbc e101 2e3b
00000040: dc84 a6bb 1fb8 8f3a b2ba b53a 347b 8ebb
00000050: 107f f8bb dbcc 1a3c 2c2c 403a 87cc 18bb
00000060: 88d0 a63a ff53 003d b14a 23bc 3b66 293c
00000070: 03e6 913c 1cbb 5f3c 6174 c6ba 0262 afbb
00000080: 33aa 45bc cb45 94b9 266f 40bb eee3 143b
00000090: 9993 3fbc ba58 b03c 612d 8cbc e889 24bc
0.015229987 -0.013031707 -0.015031295 0.0019442124 0.011778962 -0.045215957 0.009299267 0.005065324
0.0002719866 -3.4052e-41 -0.06052012 0.019765291 0.030383866 0.0041231294 -0.025291624 0.0026551413
-0.005081756 0.0010964907 0.0013864844 -0.004348183 -0.0075835064 0.009448255 0.0007330801 -0.0023315267
0.0012726942 0.031330105 -0.009966538 0.010339315 0.017809873 0.01365545 -0.0015140885 -0.0053522596
-0.012064504 -0.0002828076 -0.0029363125 0.0022718864 -0.011692905 0.021526683 -0.017111482 -0.010042645

backbone.0.stem.1.weight f4 [40]
00000000: cd35 843f 0830 cf3e 7672 263f 8962 183f
00000010: 3b57 9cbe 91de 073f 23bc 6e3f a15a 063f
00000020: 61ce 5a3f 1fc3 0080 5060 a13e 90c9 fd3e
00000030: a938 033f 78ad 273e 1292 893f 6856 333f
00000040: 06ef 993e ff3e 343f fe25 4c3f 754b 433f
00000050: df68 28be b43b 663f 6bd9 d33d 25e9 0b3f
00000060: 14ec 373f c0ee 623f f476 7c3e df77 863f
00000070: 5f9f 133f 2d47 233f 9ce2 f13e eab1 093f
00000080: 3891 033f a5c1 233f bf52 2e3f fef8 5f3e
00000090: a522 863f e525 de3e 429f c73f f2d6 9a3e
1.0328919 0.40466332 0.65018404 0.5952535 -0.30535302 0.53073984 0.93255824 0.5248204
0.8547116 -6.9996e-41 0.31518793 0.49567842 0.5125833 0.16374767 1.0747702 0.7005372
0.30065173 0.70408624 0.7974547 0.76287013 -0.16446255 0.8993485 0.103442036 0.54652625
0.718446 0.88645554 0.24654752 1.0505332 0.57665056 0.6378048 0.47243202 0.537871
0.5139346 0.63967353 0.6809501 0.21872327 1.0479323 0.43388286 1.5595477 0.30242115

backbone.0.stem.1.bias f4 [40]
00000000: 7d89 e63d 2482 033f 37d1 273f 267b c03c
00000010: 08d1 133f c040 093f 00db 6e3e 24ac d13c
00000020: a574 b1bd debd 0080 aa13 4f3f 05e5 e63e
00000030: 9057 f33e 98f2 703e c031 203f 07e6 7e3f
00000040: c932 8a3e 9b73 0c3f 5047 113e 9f70 253e
00000050: 0199 883e 3a95 013f c626 553e 7fb5 053f
00000060: f016 3b3e 51e7 303e 65bb 213f e5c5 6d3f
00000070: c6d4 00bf c439 d23e 2b64 e83e 83fa c43e
00000080: 8189 5a3f 2ba8 12be b258 df3e 949e e2be
00000090: 4589 de3e 4e07 493f d3af af3e 180e 063f
0.112566926 0.51370454 0.6555361 0.023496222 0.5774083 0.53614426 0.2332573 0.025594778
-0.08664826 -6.8112e-41 0.8088938 0.45096603 0.47527742 0.23530042 0.6257591 0.99569744
0.2699187 0.548639 0.1418736 0.16156243 0.26679233 0.50618327 0.20815572 0.52230066
0.18270469 0.1727574 0.63176566 0.9288009 -0.50324667 0.41059697 0.45388922 0.38472375
0.85366064 -0.14321963 0.43622357 -0.4426161 0.43464103 0.7852677 0.3431383 0.52365255

backbone.0.stem.1.running_mean f4 [40]
00000000: 9371 95bd 7380 203c c305 5a40 13ac 27bf
00000010: ceb5 d3be fe9a ddbd bdb7 d9bf f3ea 9b3f
00000020: 6b11 fa3f 0400 0080 2d8d 993c 692d d7bd
00000030: dc42 f03d d49e e7bd f966 0fbe 96e6 1bbd
00000040: 2c5d 90bf c2d4 46be 1017 63c0 7562 5140
00000050: e6cb b7bf 8a40 d1bd 9db8 d23e 4ac2 22bd
00000060: 0263 61bf 8e12 9b3c 42ab 703e fcc7 5d3d
00000070: 7110 febf 9ef4 88be a6f0 a73f 27b7 043e
00000080: 9223 2a40 89d5 78bc 7d43 373c f491 673f
00000090: 6dd7 0cbd 07b3 1740 56c4 e83b 0e63 2040
-0.07297053 0.00979625 3.4066017 -0.6549694 -0.41349643 -0.10820578 -1.7009197 1.2181076
1.9536566 -6e-45 0.018744076 -0.10506708 0.117315024 -0.11309591 -0.14004125 -0.0380617
-1.1278434 -0.19417098 -3.5482826 3.2716343 -1.43591 -0.10217388 0.41156474 -0.03973607
-0.880417 0.018929746 0.2350283 0.054145798 -1.9848768 -0.26749128 1.3120315 0.12960492
2.658421 -0.0151876295 0.011185524 0.9045708 -0.034385134 2.370302 0.007103483 2.5060458

backbone.0.stem.1.running_var f4 [40]
00000000: 2633 aa3e 5a5f cf3e b4e0 7640 2cc6 e23e
00000010: 7226 933e 2e03 973d bd8d c13f f3b0 0b3f
00000020: 4d5c db3f 0400 0000 6eed 293e 6423 1d3e
00000030: 2c14 a33e f6e7 b33d cca0 223e 48f7 3e3e
00000040: c685 e53e 872f 9e3e f95f 7d40 4908 5f40
00000050: b475 4a3f 193c 963e 4584 743d 84dc db3e
00000060: fba6 373f 4505 943e ea30 8b3e fb31 183e
00000070: 4517 b03f 9670 c53e b38b 363f ac6b fa3d
00000080: aa6d 4540 675e 303e bc22 983e 6404 c33e
00000090: a11a 753e 15fc e63f 3682 5c3e f7d1 0940
0.33242148 0.40502435 3.8574648 0.44291818 0.2874027 0.07373653 1.512138 0.5456688
1.7137543 6e-45 0.16594478 0.15345532 0.31851327 0.087844774 0.15881652 0.18649018
0.44828624 0.30895635 3.9589827 3.4848807 0.7908585 0.29342726 0.059696455 0.42941678
0.71739167 0.2891027 0.27185756 0.14862816 1.3757101 0.3856246 0.71306914 0.12227568
3.0848184 0.17223512 0.29714 0.38089287 0.2393594 1.8045679 0.21534047 2.1534402

backbone.0.stem.3.weight f4 [40, 1, 3, 3]
00000000: bb76 9b3d 9fec 37bf 56e7 04bf 8687 a73e
00000010: 846a fd3e 04a4 8a3e b550 dd3c 7129 363f
00000020: 5b44 433f 5dcf a33f 202d 853f 79ee acbe
00000030: 0a8a 1e3e 6fec 593d 386e 9ebe bd63 29bf
00000040: 312f c1be a739 223e 59ee 68be 8b23 04bf
00000050: 7f42 4cbf 7189 f13e c336 80be 6071 aabd
00000060: 47ec 403f 1a30 43be 7661 673f 25f4 4a3f
00000070: b0de 363f 42ba 6f3e 8ea9 00be dde4 59bd
00000080: 5a1c 073d 5f2b ddbe 5e86 82bf 3157 a5be
00000090: d67f 2b3f ca4d 40bf 0cc6 e2bd 87ea 6c3f
000000a0: afff 2d3c 2e76 3abf ec38 dabe 01d5 1d3f
000000b0: e7cf 32bf 5985 abbe 1f81 1c3e e8f9 a03d
000000c0: e64d 483f 967e a7bf bfbf 34bd 04ad e3be
000000d0: 55de 913f e849 2f3e bec0 ed3e 2bef 553d
000000e0: 6d19 dc3e 0f49 433e e6f1 3e3e 4902 633e
000000f0: 3446 5fbf ff98 a6bf 2d6a 47bf 315f 873e
00000100: 0198 e9bd ed5d 883e 159f 3b3d d083 e93e
00000110: e896 bf3e ac0e 8e3e d83e 423f 7e88 a13e
00000120: 9cd2 d4bb 1abe ba3e 0b41 863f bd5f 11bf
00000130: 6a65 ae3e 1855 373f 1d28 1e3e 95f4 413e
00000140: 3daf 3a3f 0fc1 0080 a0bf 0000 5c38 0080
00000150: f9c2 0000 cfbd 0080 6ac0 0000 56bd 0080
00000160: 312c 0080 b7be 0080 3d78 1cbe d821 a33e
00000170: 1445 c5be f886 853f 6997 61bf 5142 f3be
00000180: be68 6e3f 334c 813f abc6 e2be 003d cabe
00000190: d15b b5bb 908b 34be 9c04 90bf eff5 183f
000001a0: a63a 263f 9307 fcbe ee03 d93c 4ebc 903f
000001b0: 10f7 9cbd 8dfb 053f 1554 533f 9ef5 f83e
000001c0: 5bda e43e 5136 423f 1180 c4be 1bcc 8dbf
000001d0: cc57 4fbf 503c ed3d 5034 a13e 6816 a3be
000001e0: 262b 933d 0fa9 943e 1fd7 b9be afd6 953c
000001f0: 08b7 253e 1805 debe 1bee 413d bcd7 e83e
00000200: 2af2 3d3e a5d8 8e3e 4a05 a93f 05bd 153f
00000210: e673 0a3e 94e6 8c3f be0a 1d3e 32e5 b9bd
00000220: d687 ad3e 8349 143f da8c 953d 3eb2 863f
00000230: bf0c a23e 6418 cf3e 151f 5e3f af2a 0a3f
00000240: cd27 95be 66fc 91be a873 ca3e 1754 433f
00000250: e763 163e 9e67 fdbd 98be f03e f8d5 0c3f
00000260: b46b 823e bfb2 00be 9aa6 f53b 9aa0 7bbc
00000270: 1dbb a83f c289 d13f bd0a 2e3f 95e6 ab3e
00000280: cdba 9e3e cd30 353e bc03 e3be 8ea0 fd3e
00000290: 1dfb 953f 0fcc 93be 36c1 c1bd 6c06 bf3e
000002a0: e77d eabd 5231 73bd 01cf 613f 4075 94bd
000002b0: 9ce4 053f 5acf fc3e a216 b2be 2017 313f
000002c0: 1a3e 053f 1089 683d 9ee4 073f 27e6 663f
000002d0: be47 523e 4162 fa3e f657 d93e 1f6e 6bbd
000002e0: fd9d 33be b59b 5bbe 783f 5cbe 5211 8cbe
000002f0: a5da 7bbe dca8 9abd 95e6 323f 131f 85bf
00000300: eb50 a03e 98a9 46bf f560 95bf d383 c93d
00000310: 36e5 aabf b17a cb3e 9f6b 90be edf5 59bd
00000320: caba 51bd 8c98 cdbd dd58 663d aebc 613d
00000330: 58b8 053e 19da a13e 2de6 cc3e f5e4 c7bc
00000340: a0b5 463f ff0e ca3e 2445 91be e872 953f
00000350: 4b32 073f a033 5cbe 564b 063f 52e6 ad3e
00000360: 1e19 a53e 88f1 873e ed57 663f 75bc 9f3e
00000370: 598c 3f3f 47fe e03e e3ce 223f 4b98 3a3f
00000380: 50ab 3e3e 7f52 2a3b 1d88 0abf 4201 2cbf
00000390: 5320 623f 71c6 edbc dc0a 62bf 451b 323f
000003a0: 216b 093f d17d 643d df72 de3b b382 9c3e
000003b0: 05a2 36bf 6f80 bd3f 4305 853f 20db 00bf
000003c0: acaf 1ebd 08b6 7e3e 914c 98be 426e 6b3e
000003d0: a6da 863f 65f7 2b3f c8ad aa3d b483 aa3e
000003e0: b8a4 cdbd 4517 02bf fb69 45bf 73c5 c2be
000003f0: 59f4 4f3f 847c 883e a59a b8bd 175c c43e
0.075910054 -0.7184543 -0.5191549 0.32720584 0.49495327 0.2707826 0.027016023 0.71156985
0.7627618 1.2797657 1.0404396 -0.3377569 0.15482345 0.053203996 -0.30943465 -0.66167814
-0.37731317 0.15842305 -0.22747172 -0.51616734 -0.79788965 0.47175172 -0.2504178 -0.08322406
0.7536053 -0.19061318 0.9038309 0.79278785 0.71433544 0.23410895 -0.1256468 -0.053196777
0.032986023 -0.43197152 -1.0197256 -0.32293084 0.6699194 -0.75118697 -0.11072931 0.9254536
0.010620042 -0.7283658 -0.42621553 0.61653143 -0.69848484 -0.33500174 0.15283631 0.07860166
0.78243864 -1.3085506 -0.044128176 -0.44467938 1.1395975 0.17118037 0.46436113 0.05223004
0.42988148 0.19070838 0.18646964 0.2216884 -0.87216496 -1.3015441 -0.77896386 0.26439813
-0.114059456 0.2663416 0.04580601 0.45608377 0.3741982 0.2774557 0.7587714 0.31549448
-0.006494833 0.3647316 1.04886 -0.5678671 0.34061748 0.7161422 0.1544499 0.18940957
0.7292364 -6.9256e-41 6.8742e-41 -2.0218e-41 6.9943e-41 -6.809e-41 6.9025e-41 -6.7921e-41
-1.5853e-41 -6.8416e-41 -0.15280242 0.31861758 -0.38529265 1.0431814 -0.8812166 -0.47511533
0.93128574 1.0101379 -0.44292197 -0.39499664 -0.005534627 -0.17631364 -1.1251407 0.59750265
0.6493324 -0.4922453 0.026491132 1.1307466 -0.07664311 0.5233696 0.82550174 0.4862489
0.44697842 0.7586413 -0.38378957 -1.1077913 -0.8099334 0.11583769 0.31485224 -0.31853032
0.07185964 0.2903523 -0.36296937 0.018290846 0.16183102 -0.4336326 0.047346216 0.45477092
0.1854941 0.27899662 1.3204739 0.58491546 0.13520774 1.1007867 0.15336129 -0.09076919
0.33892697 0.5792467 0.07302256 1.0523145 0.3165035 0.40448296 0.8676618 0.5397138
-0.29131928 -0.28512877 0.39541364 0.76300186 0.14686547 -0.12373279 0.47020411 0.5501399
0.25472796 -0.12568186 0.007496667 -0.015358115 1.3182102 1.6370165 0.67985135 0.33574358
0.31001893 0.17694397 -0.44338787 0.49536556 1.1717259 -0.28866622 -0.0946068 0.37309587
-0.11449795 -0.059373207 0.8820649 -0.07248926 0.52301955 0.49376947 -0.34782892 0.6917591
0.52047884 0.056771338 0.5308322 0.90194935 0.2053518 0.48903087 0.4244992 -0.057478067
-0.17540736 -0.21446116 -0.21508586 -0.27356964 -0.24595125 -0.075517386 0.6988309 -1.0400108
0.31311736 -0.7760253 -1.1670214 0.098395966 -1.33512 0.39742044 -0.28207108 -0.05321305
-0.051203527 -0.10038862 0.05623709 0.05511158 0.13058603 0.31611708 0.4001936 -0.024401167
0.7762089 0.39464566 -0.28373063 1.1675692 0.52811116 -0.21504068 0.52458704 0.33964783
0.32245725 0.2655146 0.89977914 0.3119847 0.7482353 0.43943998 0.63596934 0.7288863
0.18620038 0.0025989113 -0.5411394 -0.6718942 0.8833057 -0.029025288 -0.8829782 0.6957286
0.5367909 0.05578405 0.006788596 0.30568466 -0.7134097 1.480482 1.0392231 -0.5033436
-0.038741753 0.24874127 -0.29745916 0.22991279 1.0535476 0.6717437 0.083339274 0.33303607
-0.10041183 -0.50816756 -0.7711484 -0.38041267 0.8123222 0.26657498 -0.09013871 0.3835151

backbone.0.stem.3.bias f4 [40]
00000000: 5203 04bc b65d f4bc 3cc9 91bc ed25 00bc
00000010: 46d1 4dbc 9e5d 9fbc 4eca 833c 65aa 40bb
00000020: 566c 903b f6c2 0080 d274 c2bd e5d3 a13b
00000030: 263d abbb c892 3cbd 9017 b7bb e475 afbb
00000040: 055a d53c 6592 f2ba e6ef fb3b df14 0c3c
00000050: 14ef 15bc 90a2 a13a 18bd c9bb cb63 a83b
00000060: e2b1 a93b 4ed3 9dbc 0218 ac3c f696 343c
00000070: c8af a7bb 66dc 353b 4957 c33b 386d c5b9
00000080: dde9 093d 394e 27ba e376 053c 81e7 8837
00000090: b24e d0bb 73bb 2bbc b273 38bc 9c0a 39bc
-0.008057432 -0.029829841 -0.017796151 -0.007821542 -0.012562102 -0.01945382 0.016087677 -0.0029398438
0.004407446 -6.9939e-41 -0.09494938 0.00493859 -0.0052257953 -0.04603842 -0.0055875257 -0.00535463
0.026043901 -0.0018506764 0.00768851 0.008549898 -0.009151239 0.0012331773 -0.006156575 0.0051388494
0.005178676 -0.019265797 0.021007542 0.01102232 -0.0051173903 0.0027749776 0.005961333 -0.00037656142
0.033670295 -0.00063822005 0.008146021 1.6320266e-05 -0.0063570375 -0.010481703 -0.011258053 -0.011294033

backbone.0.stem.4.weight f4 [40]
00000000: 7b3b 823f 32ab 0a3f ffde d93f 3c77 8b3f
00000010: 10c2 483f 59ea d73f 3bac 813f e12c b93f
00000020: 4d46 663f f9bf 0080 1f67 e33e c596 c73e
00000030: 4085 883f 4a3b 05bf 60d5 543f fd69 823f
00000040: f3ab a93f 35f9 a63f cb6a 7a3f b032 423f
00000050: 500e cb3e bfbd 483f 6431 2bbe c6b5 983f
00000060: 1aec c43e 2ad2 793f 0f1f d83f 746b 2340
00000070: a60b fd3f d265 253f a4e8 783f 5ac5 763f
00000080: 9c97 923f f778 1f3f 0bbf 3d3f 9e9b 8f3f
00000090: 835e 8b3f 4251 4f3f 232b c33f 1c37 8f3f
1.0174402 0.54167473 1.7021178 1.0895762 0.78421116 1.6868392 1.0130686 1.4466821
0.8995102 -6.8867e-41 0.44414613 0.38982216 1.0665665 -0.5204359 0.83138084 1.0188595
1.32556 1.3044802 0.97819203 0.75858593 0.39659357 0.7841453 -0.1671806 1.1930473
0.3846138 0.9758631 1.6884478 2.5534334 1.976918 0.6460849 0.9722998 0.96394885
1.1452518 0.6229395 0.74119633 1.1219366 1.0888218 0.80983365 1.5247539 1.1188693

backbone.0.stem.4.bias f4 [40]
00000000: 93f0 153f 76ec d13d 3c95 5b3f e35b 643f
00000010: 7669 d13d 7c39 ec3e 42c1 b43d e117 603f
00000020: 0c2f d23e 3cf7 fc39 79e4 8d3f 9484 613e
00000030: abf7 8a3f 3ef3 103f 0cc7 4a3f e6aa 5e3f
00000040: 93e2 fa3e 75a2 c53f 2df8 0d3e 1740 453f
00000050: c3a8 21be 7052 d83e 9574 b93e 0566 8f3f
00000060: a50e 213f 350f 123f b6e4 6b3f 0d1f 1640
00000070: 7fc7 9a3e f63b db3e e437 ce3e d858 863f
00000080: 8594 3a3f b99e 9a3d d5b5 ce3e e365 f9bd
00000090: ae54 833f 578a 903f fac4 023f 7b90 993f
0.5857021 0.102501795 0.8577459 0.8920271 0.10225193 0.46137607 0.088259235 0.87536436
0.4105152 0.0004824939 1.1085349 0.22023231 1.0856832 0.5662116 0.7920997 0.8697952
0.49000987 1.5440203 0.13864203 0.7705092 -0.15787034 0.42250395 0.36221758 1.1203009
0.6291297 0.57054454 0.9214586 2.3456452 0.30230328 0.42819184 0.40277016 1.0495863
0.7288287 0.07549805 0.40373102 -0.121776365 1.0260217 1.1292218 0.5108181 1.1997217

backbone.0.stem.4.running_mean f4 [40]
00000000: 6ddc d93e 923e fa3e f918 863c 0056 39bd
00000010: 68f1 94be c776 953d 0537 2ebf 5534 173f
00000020: ebaf 683f 0400 0000 0f66 2a3f 809f ad3d
00000030: a0aa b83e 46f3 89bd 2a14 4d40 4b9d 8040
00000040: b21e 143f 8add 1e40 3dcb 443f cb99 a43f
00000050: a5bf cabc 0b68 dabf 6a44 b73d 31d4 e33f
00000060: e7fc cf3f b5df c5bb 4983 6b3f 4106 1c3f
00000070: 9026 193e c479 703f b321 35bf b82c 763d
00000080: cbaf e73b c33d 603e 8c84 0dc0 8907 f83b
00000090: 8f32 14bf 4f73 c53e c244 03be 6da7 c13e
0.42550984 0.48875862 0.01636933 -0.04524803 -0.29090428 0.072980456 -0.68052703 0.5906423
0.9089343 6e-45 0.6656198 0.08477688 0.36067677 -0.06735854 3.2043557 4.019201
0.5785934 2.4822717 0.76872617 1.2859434 -0.024749586 -1.7063001 0.08948596 1.7799131
1.6249055 -0.006038631 0.919972 0.6094704 0.14956117 0.939358 -0.70754546 0.06010124
0.0070705167 0.2189856 -2.211215 0.0075692576 -0.57889646 0.38564536 -0.12819198 0.37823048

backbone.0.stem.4.running_var f4 [40]
00000000: 0c64 1e40 d001 343e fc46 1a3e ee24 243e
00000010: bd46 9c3e f6d7 223f 2b40 453f 47cf 2a3f
00000020: 21fe 0640 0400 0000 36a6 6d3e 2915 ce3f
00000030: 5f48 573f 7a62 cb3c 9e5b 1841 ff92 cb40
00000040: 37b4 463e 5da3 7e40 81cd 573f 82ef 3440
00000050: dd7c a73b 5fcc 4340 847f 723b bf93 f13f
00000060: 658c 1f40 9d1f 9d3f 24fe 913e 6938 433f
00000070: 1ca3 003e 1688 623f f7a2 da3e a630 dc3e
00000080: aa26 3f3e 1770 0f3f 2328 4740 d599 903b
00000090: 9985 8a3f 52e0 2e3e 7339 2640 a3c8 ea3d
2.4748564 0.17578816 0.15066141 0.16029713 0.3052272 0.6361078 0.7705104 0.6672253
2.1092608 6e-45 0.23207936 1.6100208 0.84094805 0.02482723 9.5223675 6.361694
0.19404684 3.978721 0.8429795 2.8271184 0.0051113204 3.0593488 0.0037002275 1.8873214
2.492944 1.2275273 0.28514206 0.7625795 0.12562221 0.884889 0.42702457 0.43005866
0.18667093 0.5603041 3.1118248 0.0044128695 1.0822021 0.17077759 2.5972564 0.1146405

backbone.1.layers.0.bn.weight f4 [40]
00000000: cc70 3740 f269 0b3f ad74 8c3e 6017 8ebd
00000010: 894a c73f e42a 4e3f ec7b 253f 7ee6 77bc
00000020: 66ed dabd 733f 0000 9de3 6fbd 4338 da3e
00000030: d9b3 713f b812 a43e fcd5 ba3d b6aa 2bbd
00000040: c4d4 1b3f 3626 1a3f 778c ee3e 0bde 453f
00000050: 51fc c9be 672d 9a3f f054 cabe 2ec0 913f
00000060: 556d 1f3f f36b 8c3f 1e69 923f 9f23 fa3f
00000070: 8daa f83e 89d0 9e3e 079b c73e cbfe 853f
00000080: fb3d bebd 8dc4 883f 996d c53f 2143 4b3e
00000090: 9e17 18be f81f 2abd 7115 9d3f 9821 c13e
2.8662596 0.54458535 0.27432767 -0.06938052 1.5569621 0.80534196 0.64642215 -0.015130637
-0.106898114 2.2761e-41 -0.05856668 0.4262105 0.9441505 0.3204553 0.091228455 -0.04191085
0.6087153 0.60214555 0.4659154 0.77291936 -0.39450315 1.2045106 -0.39517927 1.1386774
0.622762 1.0970443 1.1438329 1.9542121 0.4856762 0.31018475 0.38985464 1.0468382
-0.092891656 1.0684983 1.5424072 0.19849826 -0.14852759 -0.041534394 1.2272168 0.37720942

backbone.1.layers.0.bn.bias f4 [40]
00000000: ffc8 633f c883 26bc 2b14 f23e 5c7a 883d
00000010: a09e 213b 9d19 30bd ba51 c03f c2c0 c43a
00000020: adbd ad3e c795 c9b8 1b4b b93c 8e06 343d
00000030: d149 b13e dec3 abbe 6854 193d 64fb 223f
00000040: e50c ef3e 7a2c 76be 5b07 93be 68c0 dcbe
00000050: 083b 2e3e 42f0 713f 6902 27bd c610 de3e
00000060: 0890 33bf 7707 a8be d524 653f 724a c73e
00000070: d8b6 38be bf8f 51be 852e 903e ae7f 4f3e
00000080: 9178 f83c da2f d43f f875 443f 4f29 f53c
00000090: a9da 1f3f 6afa f73c fca8 e43e 57fd b43e
0.8897857 -0.010163255 0.47281012 0.06663963 0.0024661198 -0.042993177 1.5024941 0.001501106
0.33933774 -9.612325e-05 0.02261882 0.043951564 0.3462663 -0.33547872 0.03743401 0.6366484
0.46689525 -0.24040404 -0.2871655 -0.43115544 0.17014706 0.9450723 -0.040773783 0.43372172
-0.7014165 -0.32818195 0.89509326 0.38923985 -0.180385 -0.20464991 0.28160492 0.2026355
0.030330928 1.6577103 0.76742506 0.029926924 0.62443024 0.030270774 0.44660175 0.35349533

backbone.1.layers.0.bn.running_mean f4 [40]
00000000: c9cd e63e 373e 03be fd0f f43f 22db 1dbf
00000010: 76a1 c6be fdb5 1bc0 560e 373f fdd1 87bc
00000020: 7192 75be 0400 0000 53e2 703a ed97 e8be
00000030: e257 7ac0 5b90 663e bc3f 0a3e 84e3 0b3f
00000040: 85f1 0abf 2fee 3440 3205 1b3f e15f 623f
00000050: 79ea 963d 52e6 b3be 2616 623d 2ef3 453c
00000060: c232 903f 8ca7 75c0 1d68 e9be e775 ecbf
00000070: fcc4 d6be e827 d43e 3dbb 443d 152e 2abe
00000080: 7587 4abf bec7 a4be 8f06 203d 884c 193d
00000090: 12f2 773e 70e4 47bf 76dc a5bf 7cf2 bb3f
0.45078877 -0.12816702 1.9067379 -0.61662495 -0.3879506 -2.4329827 0.7150625 -0.016579622
-0.23981644 6e-45 0.00091889984 -0.4542841 -3.911614 0.22516005 0.13500875 0.54644036
-0.5427478 2.8270376 0.605548 0.8842755 0.07368941 -0.35136658 0.055196904 0.012081904
1.126549 -3.8383512 -0.45587245 -1.8473481 -0.41947162 0.41436696 0.048030127 -0.16619141
-0.7911294 -0.3218364 0.039068755 0.0374265 0.24213436 -0.7808294 -1.2957904 1.4683375

backbone.1.layers.0.bn.running_var f4 [40]
00000000: 579d 8840 e3f4 de3d 194d d53f 1ccc 593e
00000010: a934 083f 92a1 ad40 a20f 1a3f 5a47 713a
00000020: 6074 4f3e 0400 0000 4815 933a 1bdf 9a3e
00000030: 268d 3740 f906 9c3d 45c6 fb3c 659c 903e
00000040: 358b 203f 7d39 9240 b27d 7e3f 1a09 4e3f
00000050: 7c64 ee3c aa6e 293f e1f0 013c b4d2 553f
00000060: e178 cb3e 7a9e 9040 3c32 4340 ee67 e540
00000070: 1229 b73f 8a42 683e 6f9d 443d 3514 7c3f
00000080: 4dd8 863e 2f48 b53f e0f9 073f d32c 5c3d
00000090: d311 f93e 2c14 0d3e 8f75 2440 a554 df3f
4.2692065 0.10886552 1.6664153 0.21269268 0.53205353 5.425973 0.60180104 0.00092040526
0.20259237 6e-45 0.0011221552 0.3024834 2.86799 0.076185174 0.03073419 0.2824432
0.62712413 4.5695176 0.99410546 0.8048264 0.029100649 0.66184485 0.007930965 0.8352463
0.3974066 4.5193453 3.049941 7.1689367 1.4309409 0.22681633 0.048001703 0.98468333
0.263369 1.4162654 0.53115654 0.053753685 0.4864641 0.13777226 2.5696752 1.7447706

backbone.1.layers.0.dwconv.weight f4 [40, 1, 3, 3]
00000000: 8acd 323f faaa 973f 80c3 043f b52c a3be
00000010: 2a99 1b3e 2250 ffbe 0a71 fdbe 2ae2 3dbd
00000020: 57c8 2abf ead3 74bf a002 2f3e a21b d0be
00000030: f1a2 53be dd65 9c3f 3b92 0bbf 12b5 0dbe
00000040: 079d 9f3e d064 70bd f477 8e3e 196c da3e
00000050: 1aea 653e a865 db3e fc07 e0bb 5b4b 783e
00000060: 729d 3d3e a8ea ee3e f4f7 c9be ee1b a7be
00000070: 6ded 11be f47b 6bbe c693 7e3d 5bf6 63bd
00000080: 0cb4 52bc 6786 d83c ca50 0a3b 52c2 f03c
00000090: 7d27 843e 12a2 23bf cd40 a93e 25b9 063d
000000a0: b1b0 743f 4b03 76bf 8fb9 23bf 36bf 87bf
000000b0: a25a b33e 7f57 4dbf 4625 f5be 0ec0 193e
000000c0: f858 b3bf 1ae0 223e aa42 19bf e4d1 9fbe
000000d0: 4dec bf3e dc64 9fbe 1807 c2be e06c fa3e
000000e0: 60c4 5e3f 681f 94be da1d 143e 5223 663f
000000f0: d2ab e8be 64bc 6ebd e79d c43e 918c 32bc
00000100: 711b 1aba 368f 173c 9d12 80bc c6a8 65bb
00000110: bf62 0cbb 4930 d439 d482 5a3b 76ab 023a
00000120: 6386 0fbe 472b 29be c777 e13d 450d 9fbe
00000130: b355 b1bb a919 613e b2d9 88be 7caf 0dbe
00000140: 2e5f 603e 46c2 0000 0dbf 0080 aec0 0080
00000150: 281a 0080 7abe 0080 89c2 0000 1917 0000
00000160: 5e90 0000 ebc1 0080 7d36 21bc 3a7f 5abd
00000170: 1173 923d db78 8e3d a53f 6dbd bd2d 1cbd
00000180: ba1a 05bd 6a7d 0f3d 18f7 db3b 020d 7b3e
00000190: 356a e9bc 4308 36bf c7bb cb3d d5c3 c43e
000001a0: 1028 aabf 27a0 9a3e 1bc5 253e 1571 9abf
000001b0: 317e a4bf 0880 16bf a868 9bbe 3040 62bf
000001c0: a3a7 633e 64ef f1be 7f1a d73d 63e7 48bf
000001d0: 49ae e63e aa0a babd 3449 963e fcf3 aebe
000001e0: 29d0 b93d 98b6 1c3e b68b 31bc 921d 1a3b
000001f0: 4465 a33e efad 6cbd cdf9 fa3d 0d47 f0bc
00000200: 64c9 d9bd 3d27 833d 4063 353c 5c99 dbbd
00000210: e9e3 083e 537d 443d 76d3 213d e071 073e
00000220: a4a3 aa3d 361f 58bd edd4 203e 7b3f c83d
00000230: f19e 52bc db40 3a3e 71a8 483d 259f 55bd
00000240: eebf b63e fb1f 1a3c a02a 98be ce6d 66be
00000250: fb6f c5be b4db 11bf fb06 4a3e 34b4 ef3e
00000260: 3612 40be e8b5 cf3c 414e 1dbf aaf1 c83e
00000270: 4900 fd3e 87dd 573f 13b6 853e 2d8b 7d3e
00000280: aa45 b33d 73a3 e73d 6573 1abe c594 583f
00000290: 5e1d 0e3f 98fc 76be 4490 e13d ceed b13e
000002a0: 31b4 febd 8b22 c9bd ff75 bd3d a906 803d
000002b0: 6cf9 283f ee2a 9dbe dbea 5d3d c4ec ad3d
000002c0: 7ca0 21bf 6b37 c03d d164 813f bc2d ee3d
000002d0: 43e9 843e efa4 bcbb c41f e13d c80b 413e
000002e0: 4c75 7b3c 32d7 e43c 879e 56bd cf9b da3d
000002f0: a5fe 373f c002 8cbe bb72 7abf e00a 563f
00000300: 1cc1 33bf dc8d 32be 3e3d 53be 5466 fcbe
00000310: fc67 773f 3eef b43e 3717 9e3e 9b4b e13d
00000320: 3e73 0e3d 60d7 7a3e e1b4 9bbc 5bcf f93d
00000330: 4bf2 a7be 0ce8 0fbc a3de 8fbe d6d2 563f
00000340: faeb ab3d 71b4 30bf d669 5a3f 38fc 1abe
00000350: 2ef1 eabe eddc f53d 2c66 03be b62d e4be
00000360: de36 9abd 35f2 093f 6559 243e 379f 3cbd
00000370: ba04 9c3e a857 f9bd 27ea 5abe c0c9 853f
00000380: e858 6f3e 59a1 32bf c5e0 a8bf 1b0e 083d
00000390: 895a ddbd 2a6a 2dbf 9063 15bf 192e 683e
000003a0: 5ed2 bdbf 9e7d 88bf 46d6 69bf 9075 e53e
000003b0: 42de c53d 1d51 a7bf 6384 7e3f 2251 b23e
000003c0: 3f06 dabd 1488 34be 3f5e 173e 756b 2cbe
000003d0: f8aa b1bf 8d1d bfbd 139f b3be d818 d23e
000003e0: b6d3 afbe 6d9f 9d3e 5835 783f 6150 5cbe
000003f0: c732 283e 112a 26be 7ad7 aabe c470 e13e
0.6984488 1.1849053 0.5186081 -0.31870046 0.15195146 -0.49865824 -0.49500304 -0.046358265
-0.66711944 -0.95635855 0.17090845 -0.40646082 -0.20667626 1.2218586 -0.54520005 -0.13838604
0.3117449 -0.058689892 0.27825892 0.42660597 0.22452584 0.42850995 -0.0068368893 0.24247496
0.18517092 0.46663404 -0.39446986 -0.32638496 -0.14250727 -0.22996503 0.062152646 -0.055654865
-0.012860309 0.026431276 0.0021105283 0.029389534 0.25811377 -0.63919175 0.33057252 0.03289141
0.9558211 -0.96098775 -0.63955015 -1.0605228 0.35030085 -0.80211633 -0.4788 0.1501467
-1.4011526 0.159058 -0.59867346 -0.3121482 0.3748497 -0.31131637 -0.37896037 0.4891119
0.87018394 -0.2893021 0.14464512 0.89897645 -0.45443588 -0.058285132 0.3840172 -0.010897771
-0.0005878723 0.009250453 -0.015633876 -0.0035043224 -0.0021421162 0.00040471766 0.003334214 0.0004984656
-0.14016108 -0.16520415 0.11009174 -0.3106481 -0.0054118275 0.21982445 -0.26728588 -0.13836473
0.21911308 6.9692e-41 -6.8536e-41 -6.912e-41 -9.383e-42 -6.833e-41 6.9786e-41 8.286e-42
5.1789e-41 -6.9565e-41 -0.009839651 -0.05334399 0.071508534 0.06956645 -0.057922024 -0.038129557
-0.03249619 0.035031714 0.0067128055 0.24516681 -0.028493026 -0.71106356 0.09947925 0.38430658
-1.3293476 0.30200312 0.16188471 -1.206576 -1.285101 -0.5878911 -0.30353284 -0.8837919
0.22231917 -0.47252953 0.105031006 -0.7847807 0.45054844 -0.09084065 0.29352725 -0.3417052
0.090729065 0.15304029 -0.010836532 0.002351616 0.31913197 -0.057783064 0.12254677 -0.029330755
-0.10634115 0.064039685 0.011071026 -0.1072261 0.13368191 0.04797108 0.039508305 0.13227034
0.08331993 -0.05276414 0.15706225 0.09777733 -0.012855277 0.18188803 0.048988763 -0.052153725
0.35693306 0.009407039 -0.2972002 -0.22502825 -0.38561997 -0.56975865 0.19729225 0.46817172
-0.18756947 0.025355294 -0.6144753 0.39246875 0.4941428 0.843224 0.26115474 0.24760123
0.08753522 0.11310472 -0.15083082 0.84602004 0.5551356 -0.24119794 0.110138446 0.34751743
-0.124367125 -0.09821042 0.092510216 0.0625127 0.6600559 -0.30696815 0.054179054 0.08492425
-0.63135505 0.0938557 1.0108892 0.11629817 0.25959215 -0.0057569663 0.10992387 0.1885215
0.01534779 0.027934644 -0.052397277 0.106742494 0.7187293 -0.27345848 -0.97831315 0.83610344
-0.70216537 -0.17436928 -0.20628831 -0.4929682 0.9664304 0.35338777 0.30877087 0.11000749
0.034777872 0.24496222 -0.019007148 0.12197753 -0.32802042 -0.008783352 -0.28099546 0.8391546
0.08394618 -0.6902533 0.8531774 -0.15135276 -0.4588713 0.12005029 -0.12831944 -0.44566125
-0.07529996 0.53885204 0.16049726 -0.046050277 0.30472356 -0.12174922 -0.21378385 1.0452194
0.23373759 -0.69777447 -1.3193594 0.033216577 -0.10808284 -0.6774012 -0.58355045 0.22673835
-1.4829824 -1.0663335 -0.9134258 0.44816256 0.09661533 -1.3071629 0.99420756 0.34827524
-0.106457226 -0.17630035 0.14782046 -0.16837867 -1.38803 -0.09331808 -0.35082301 0.4103458
-0.3434121 0.30785695 0.96956396 -0.21515037 0.1642562 -0.16226985 -0.3336752 0.44031346

backbone.1.layers.0.dwconv.bias f4 [40]
00000000: 6a90 913b 7610 1bbb 7b52 df39 ff92 7c39
00000010: fae7 10bc 79c1 0eb9 8075 783b 8bf4 783b
00000020: 5ba0 da3a b37a 0080 29cb 893c 9c4a e63a
00000030: 9432 e0bb 4809 9a3a dc16 b9bb 1022 243b
00000040: 98ae 893b 945c 8c3a aba1 88bb 8b14 263c
00000050: 7cfe cc3b 3f12 9cba 858c acbb c527 8abb
00000060: 2d12 16bc a690 fdba ca47 a13b ac4d 423b
00000070: f599 dd39 aa8e 4bba f272 3c3a 2b67 8eb8
00000080: 92b0 9b3b 6e7c fa3a 80f1 f6bb dc0d 5f3a
00000090: 4213 a3bb 1234 833b a2f1 88ba 0909 0e3b
0.0044422643 -0.0023660935 0.00042595327 0.00024087353 -0.00884437 -0.0001361425 0.0037911832 0.0037987556
0.001667987 -4.4016e-41 0.016820507 0.0017569843 -0.006841967 0.0011752034 -0.005648477 0.0025044717
0.0042017214 0.0010708743 -0.004169663 0.010136734 0.006255923 -0.0011907293 -0.0052657747 -0.0042161667
-0.009159607 -0.0019345477 0.004921888 0.0029648347 0.00042267112 -0.0007765094 0.0007188759 -6.790304e-05
0.0047512734 0.0019110569 -0.0075361133 0.000850884 -0.004976661 0.00400401 -0.0010447989 0.0021672866

backbone.1.layers.1.bn.weight f4 [40]
00000000: b51e 123f f00d 843f 92aa 013f d167 1f3f
00000010: 6f52 833f 8a65 973f 7555 973c 789c 813f
00000020: 4f9a 663f ebc2 0000 81c3 a53e 73c5 b93f
00000030: 7a2d c73f fcf4 0cbf 8434 493f b07a bc3e
00000040: fd36 1cbf 3bb6 6b3f 0fb3 6cbe 99aa 32be
00000050: ee81 163f 2f44 e53e fae7 bc3e 7a4f d23f
00000060: b16b 203f 5a32 4140 a8fb 7b3f 2c35 1740
00000070: b870 d33e 81f8 d23e f58d be3b 5120 003f
00000080: ad25 0e40 19e4 8a3e a3c5 9a3f 3c28 a43e
00000090: 1fac f33e 7620 b33e 3670 3e3f a392 6b3f
0.57078105 1.0316753 0.50650895 0.62267786 1.0259532 1.1827862 0.018473366 1.0125875
0.90079206 6.9923e-41 0.3237572 1.4513382 1.5560753 -0.55061316 0.7859576 0.36812353
-0.61021405 0.92074937 -0.2311518 -0.1744789 0.58792007 0.44778582 0.36895734 1.6430504
0.62664324 3.0186982 0.9843087 2.3626204 0.41296935 0.41205218 0.0058152624 0.5004931
2.2210495 0.2712715 1.2091564 0.32061946 0.47592255 0.34985703 0.7438997 0.92020625

backbone.1.layers.1.bn.bias f4 [40]
00000000: ffcc d93e 2273 e63e 2b83 71bd c56e 8ebe
00000010: dc60 233d 341c b3be c83c a63e 20a3 993e
00000020: 14b7 943f c795 c9b8 8d5a b93e d05e 853e
00000030: ee8b 3c3e a9cc c63e 3eaf 9d3e 73ee 973f
00000040: e521 c93e b40d 393f 4a74 a4bc 994b c83d
00000050: 8fb2 043e 5e02 7f3e a162 e93d a586 a83e
00000060: ac25 5ebc cd3e a1be d8f2 513f a5e5 993d
00000070: 21da f23d 7a45 823e 0cbc 503d a428 433f
00000080: f339 103f 56b9 023f a31c 273f bdbd b83d
00000090: c38a 023d 4663 523e bd7b 16be 4c6b b23e
0.42539212 0.45009714 -0.058962982 -0.27818885 0.039887294 -0.34982455 0.32468247 0.30007267
1.1618371 -9.612325e-05 0.36201897 0.260489 0.18412754 0.38828018 0.30797762 1.1869644
0.39283672 0.72286534 -0.020074982 0.09780044 0.1295874 0.24903247 0.11395765 0.32915226
-0.013558786 -0.31493226 0.82011175 0.07514504 0.11858011 0.2544363 0.050960585 0.7623389
0.56338423 0.5106405 0.6527807 0.09020565 0.031870615 0.20545682 -0.1469564 0.34847486

backbone.1.layers.1.bn.running_mean f4 [40]
00000000: 3e22 dbbe 977e 15bf 083f c03f 6318 00c0
00000010: 07cc 06c0 98d0 f2bf f678 19bf 8575 cbbd
00000020: 915e 54bf 0400 0080 736a 37c0 5c25 cdbf
00000030: e66e 29c0 3421 903e 4098 893d 1c57 33c0
00000040: 151b f53f 2593 6fc0 de20 90be 98a6 143e
00000050: 5af0 a2be aa82 323f 4b9f 07bf a0af 87be
00000060: e76f 2a3d 5ac2 80c0 919e 3240 039f 2440
00000070: d2dd 843e 2a5c 683e 35a9 613d e35c 97bf
00000080: 4853 85bf dcd6 e0be 7268 f2bf a0c5 5b3d
00000090: 6dc5 23bf df24 ff3f 55e8 0bc0 934c 853f
-0.42799562 -0.58396286 1.5019236 -2.0014884 -2.1062028 -1.8969908 -0.59950197 -0.099345244
-0.82956797 -6e-45 -2.8658721 -1.6027026 -2.6473937 0.28150332 0.067184925 -2.8021917
1.914889 -3.743356 -0.28150076 0.14516675 -0.31824 0.6973063 -0.52977437 -0.2650118
0.041610625 -4.0237246 2.7909281 2.5722053 0.25950485 0.22691408 0.05509301 -1.1825222
-1.041604 -0.43913925 -1.8938124 0.053655267 -0.6397312 1.9933127 -2.1860554 1.0413994

backbone.1.layers.1.bn.running_var f4 [40]
00000000: 81d4 7040 0ec1 323f 2764 4540 6a01 773f
00000010: e732 5740 44b6 8140 dcc2 d03d 37b0 763e
00000020: 54df c73f 0400 0000 bdc0 4b3f 08ac 5a3f
00000030: 8280 3040 a953 b53e 8617 483e ee68 1c40
00000040: a0d9 5b3f 1bcc 5141 0b0d 7f3e af3d 393d
00000050: 48aa ba3c 3731 0840 a2b9 113d 5c07 3440
00000060: b39a 453e 926f 2c40 d940 ed40 3064 2041
00000070: be60 883f 30ee 343e 4f1a 523b 6b59 993f
00000080: ff29 9640 da18 c33e 820c 7b40 4afb e93d
00000090: e9b1 a03f 693c d03f 883b 5040 14f5 fb3f
3.7629702 0.6982583 3.0842378 0.9648653 3.3624818 4.053499 0.101934165 0.24090658
1.5615029 6e-45 0.7959097 0.8541875 2.7578435 0.3541539 0.19540223 2.4439044
0.85878944 13.11233 0.24907319 0.04522484 0.022786275 2.1280038 0.035577424 2.8129492
0.19297294 2.6943097 7.414166 10.02446 1.0654523 0.17668986 0.0032059138 1.1980413
4.6926265 0.38104898 3.9226384 0.11424883 1.2554294 1.6268436 3.2536335 1.9684167

backbone.1.layers.1.dwconv.weight f4 [40, 1, 3, 3]
00000000: 7d37 37be e5d1 9d3d 8b52 04bf 2c08 713e
00000010: f020 9a3e 5115 573f a22f 91bd d373 92be
00000020: 7b85 3bbf 174f e43e 40c7 473f e45f dfbe
00000030: 0e15 153f 88aa 20bf c21a 98be 8d3c 2cbf
00000040: ae4e 0dbf ac6d 1dbf e4be 94be 1b04 af3e
00000050: 44f0 433e 02fe 36bf 7e0c d33d 9398 a3be
00000060: 60cd e3bd 295a 053f ee80 af3f fde8 95be
00000070: 0f3c 3abe 5d68 4bbe 6a24 0abf fd57 c4bc
00000080: b318 eb3e 1e5e 26bf b489 1ebf a0cb 113e
00000090: 3df3 2cbf 78a4 28bd c132 e4be 858f d0be
000000a0: 924f 1e3d 3cf6 36bf 95ea 8a3d 4d4c 7fbf
000000b0: be33 fd3e 963a 41be 64e1 b1bd b4ba b8bd
000000c0: b67b fdbe 1466 9c3d 31f5 a7bf c865 01bf
000000d0: 8a09 75be 33d1 703f 5d91 5f3c 97e3 243b
000000e0: 53ae 63bd 3fb6 033b c390 303c 55e3 a3bc
000000f0: 151a e0bc dbe5 ecbd e2cf fcbd 57d3 2d3f
00000100: b362 66be 0516 5bbd 418c 7ebe 31d4 0cbf
00000110: 4a7a 96be e7d1 39be 95a9 783e b9e6 0a3f
00000120: 10ea c9bd 8e2a 6bbe 43ce 53bf d6a8 113f
00000130: 5938 d43e 2c53 74bf 5085 4c3f 12a7 933c
00000140: 2d37 3abf 11bc 0000 14c3 0080 acc0 0000
00000150: f6c0 0080 3dc0 0000 40bd 0000 afba 0080
00000160: 6dbe 0080 00c1 0000 5476 aa3d 52b6 5dbf
00000170: 06af 58bf 64ae adbf e9d7 113f e2cc 7bbe
00000180: 5124 abbe 064a 573e 2a95 803e 3055 46bf
00000190: 8fbb dfbd aec2 9c3d 8147 0abe a8d8 2e3e
000001a0: 0c50 b8bf f6e1 3cbf 4bf9 59bf 8ef1 6ebe
000001b0: 2e61 023f 071e ffbe ddfa ef3e 6b11 0cbf
000001c0: 6eed 093f 6e84 b1bf 90b7 57be 7e21 6cbe
000001d0: cb9a 68be ba8e 293e 8aac 29bc caa7 e53d
000001e0: 60e2 b73e 3262 4abf 68a4 a83e ad24 e13c
000001f0: e40c 033d 8896 6d3e 0eed 053f 8f27 a93e
00000200: fd62 ff3e 9905 efbe 1408 b2bf 28a4 df3e
00000210: db74 c73e 99db 8dbe 0a75 633d ebd0 423e
00000220: ed4d c2bd d733 4fbe af65 e43d 5074 d2be
00000230: 1385 43bf c9f9 52be 6951 c5be 7fee 29bd
00000240: c2dd 88be 4a1d 59bd 9380 d13e c973 483f
00000250: 7a70 243f 95e7 ca3e cfbe 34be 505b aabe
00000260: b4a4 28bd 4dcc 6a3f 4f6f a53e 8617 16bf
00000270: ce78 dbbd abfb 073e 714a 38bf f8e4 89be
00000280: cdb4 6cbf 4482 83bf 4e20 11bc 2ad8 b0bc
00000290: 395c 013e 0e65 78be 55ec 253d ca1d 023e
000002a0: 8768 b2be 8a99 e5bd b31a 3ebd 7d99 68bd
000002b0: 982c 3f3d 0259 e5bd be42 b0bc db05 943e
000002c0: 5bf4 baba c904 9bbc e0c0 8e3d 4ad7 21bd
000002d0: 816a cfbd 346f 1fbf b517 1fbd a2b6 cabe
000002e0: 64c0 5dbe f797 d33e 5d84 293e fe78 6fbe
000002f0: 6e1e babd 7e1e 2fbe 9bd2 03be 7171 7e3f
00000300: be36 91be dad8 253c f8f6 ecbe ec39 483f
00000310: cabe 8c3e 298c 13bf 9619 86bd c183 9b3d
00000320: d49d 8bbe f39b 9cbe d69d 303b 24bf e9bd
00000330: 1ac1 26be fecb 28be ecc8 2abe 0bf1 313f
00000340: 371a 8f3d bcbb 05bf bbd5 c83e 85d9 5cbe
00000350: 2ffd 65bf 7910 0d3f c66c 59bd ab7c eebd
00000360: e562 213e 6215 813f a4ae 36be f381 b3be
00000370: 4365 363f b862 cdbe ad71 17bf ad8c 22bc
00000380: 80c4 9ebe 9e18 02bf 65d3 a0be 5296 89be
00000390: def1 33bb 6449 f33d 54e7 4cbf 332b 84bf
000003a0: c1f1 c5bf 5b8f fdbe f643 10be 2256 28bf
000003b0: 7a27 f0bd 0fbb 8f3e 5da4 c93f 664b 173f
000003c0: ce70 003e 7e5a f6be 705c ab3d 3aaf c9be
000003d0: eb53 b9be b0de aebe 4d77 e3be d1f2 533f
000003e0: f4b7 263e 423c 89be b992 4c3f 2f81 493f
000003f0: c13c 593e 2568 c5be 4297 c1be f24d c23e
-0.17892261 0.0770605 -0.5168845 0.23538274 0.30103254 0.840169 -0.07089163 -0.28603992
-0.7325055 0.4459159 0.78038406 -0.43627846 0.5823525 -0.6276021 -0.29707915 -0.67279893
-0.5519818 -0.6149547 -0.29051888 0.3418282 0.19134623 -0.71481335 0.10305117 -0.31952342
-0.111231565 0.520907 1.3711221 -0.29279318 -0.18186973 -0.1986403 -0.53961813 -0.023967737
0.45917282 -0.6498736 -0.6192887 0.14237833 -0.6755865 -0.041172475 -0.44569972 -0.40734497
0.038650103 -0.71469474 0.06783024 -0.997258 0.4945354 -0.18870005 -0.08685568 -0.09019986
-0.49508446 0.07636657 -1.3121701 -0.5054593 -0.2392942 0.9406921 0.013645497 0.0025160068
-0.05558617 0.002009764 0.010776701 -0.020005861 -0.027356187 -0.11567279 -0.12344338 0.67900604
-0.22498588 -0.053487796 -0.2485819 -0.5501128 -0.29390174 -0.18146478 0.2428344 0.54258305
-0.09859097 -0.22965452 -0.82736605 0.5689825 0.4144924 -0.9543941 0.7989092 0.018024001
-0.7274044 6.7466e-41 -6.9981e-41 6.9118e-41 -6.9221e-41 6.8962e-41 6.789e-41 -6.697e-41
-6.8312e-41 6.9235e-41 0.083233505 -0.86606324 -0.84642065 -1.3568845 0.5697008 -0.24589875
-0.33426145 0.21024331 0.25113803 -0.77473736 -0.10924446 0.0765432 -0.13503839 0.17074835
-1.4399428 -0.7378229 -0.85146016 -0.23334333 0.50929534 -0.49827597 0.4687108 -0.5471408
0.53877914 -1.3868539 -0.21066117 -0.23059651 -0.22715299 0.16558352 -0.010356078 0.11213644
0.35914898 -0.79056084 0.32937932 0.027483309 0.031994715 0.23201954 0.5231484 0.33037993
0.4988021 -0.46683958 -1.3908715 0.4367993 0.3895634 -0.27706602 0.05553154 0.19025008
-0.094875194 -0.20234619 0.11152207 -0.41104364 -0.7637493 -0.20603098 -0.38538674 -0.041487213
-0.26731688 -0.053006448 0.40918407 0.78301674 0.64234126 0.39629808 -0.17650913 -0.3327279
-0.0411727 0.9171799 0.32311484 -0.58629644 -0.10716401 0.13279597 -0.7198859 -0.26932502
-0.9246338 -1.0274129 -0.0088578 -0.02158745 0.12632836 -0.242573 0.040508587 0.12706676
-0.34845373 -0.11210926 -0.04641218 -0.056787003 0.046673387 -0.111986175 -0.0215162 0.28910717
-0.0014263497 -0.01892318 0.06970382 -0.039511956 -0.10127736 -0.6227906 -0.03884097 -0.39592463
-0.21655422 0.41326877 0.16554399 -0.23385999 -0.09087835 -0.17101476 -0.12873308 0.9939185
-0.28362077 0.010122502 -0.46282172 0.7821338 0.2748931 -0.5763574 -0.06547849 0.075934894
-0.2726885 -0.3058773 0.0026949546 -0.1141341 -0.162846 -0.16484067 -0.16678208 0.6950843
0.06987422 -0.52239585 0.39225563 -0.21567352 -0.8983945 0.5510326 -0.05308225 -0.11644872
0.15760382 1.008465 -0.17840058 -0.3506008 0.71248263 -0.4011438 -0.5915783 -0.009921235
-0.31009293 -0.5081881 -0.3141128 -0.26872498 -0.0027457396 0.118792325 -0.8004048 -1.0325683
-1.5464402 -0.49523434 -0.14088425 -0.6575643 -0.117262796 0.28072402 1.5753285 0.59099424
0.12543032 -0.48115915 0.083672404 -0.393915 -0.36196837 -0.34154272 -0.44426957 0.82792383
0.1628111 -0.26803786 0.7991138 0.78712744 0.21214582 -0.38556018 -0.37810713 0.37950093

backbone.1.layers.1.dwconv.bias f4 [40]
00000000: 4915 eab9 9445 233a 3a69 213b 8a04 223b
00000010: b4ce c83b 779b 4339 5f31 3738 3c0a 8c3a
00000020: 06bd 1a3c a8bc 0080 3e2f 39bc c742 b13a
00000030: f3c1 04bc 5251 963b 99a3 13bb 3db6 87bb
00000040: 3a8b d938 5939 bc3b 2626 c53b 3e4c 4bbb
00000050: 4512 0e3c b350 813b a57d 09bc 1170 3a3b
00000060: 543d 403c b37e 833a 0103 85bb 7a19 573a
00000070: 9413 913b dca6 053a 5b16 31ba 8388 16bb
00000080: 8b63 1f3b 8ee5 9dbb 8a4d 9639 33e2 b03a
00000090: b655 18bb b46d 18bb b4d8 adbb 6024 cabb
-0.00044647817 0.00062283245 0.002462937 0.0024721944 0.0061281566 0.00018654564 4.367658e-05 0.0010684202
0.009444481 -6.7677e-41 -0.011302767 0.001352393 -0.008102882 0.004587331 -0.0022527932 -0.0041415975
0.00010373299 0.005744141 0.0060165105 -0.0031020786 0.008671348 0.0039463877 -0.008391772 0.0028448144
0.011733372 0.0010032266 -0.004059196 0.00082053954 0.0044273827 0.00050984113 -0.00067553454 -0.002296955
0.0024320807 -0.004818625 0.00028668 0.0013495147 -0.0023244447 -0.0023258748 -0.005305374 -0.006168887

backbone.1.layers.2.bn.weight f4 [40]
00000000: 8ba7 8a3f 0268 9d3d 1d60 2a40 bbf9 9a3f
00000010: 90c0 f43f 9e1e c13e 1c6e 483f 1082 0b3f
00000020: 98c3 1c3f 34be 0080 f23a 0940 433a 9a3f
00000030: 78d5 c33f 8570 053f b221 6e3e 5132 983f
00000040: 6b25 263f a247 2c3f f8fe 703f e5ba 193f
00000050: 085c ea3e b360 a43f b8c3 fe3e 0ac2 7a3f
00000060: 0b9f d83f 91ba 663f c388 31bb 97fc 0940
00000070: bbd2 553f f7a0 863d 6923 2fbd 7b72 143c
00000080: 332b f33d 5694 9cbe c258 303d 85b2 be3e
00000090: 8ec9 8f3f 57e0 0140 3ab8 6a3f 8468 4e3c
1.083238 0.076858535 2.6621163 1.2107462 1.9121265 0.37718672 0.78293014 0.54495335
0.6123595 -6.8232e-41 2.1442227 1.204903 1.529952 0.52124816 0.23255041 1.1890355
0.64900845 0.67296803 0.9413905 0.60050803 0.4577334 1.284201 0.49758697 0.9795233
1.6923536 0.9012843 -0.0027089573 2.1560419 0.83524674 0.0657367 -0.04275838 0.009060497
0.11873474 -0.3058192 0.043053396 0.37245575 1.1233385 2.0293176 0.9168736 0.012598161

backbone.1.layers.2.bn.bias f4 [40]
00000000: 39c0 bf3e ea74 df3d 3407 a53f f9f9 c33e
00000010: efb6 b83d 94e1 5c3d 59fb 643f a26f fc3b
00000020: 71c2 5abe c795 c9b8 94df 183f 89c5 a63d
00000030: ca54 95bd 0664 353f cd64 083e 05fd ba3e
00000040: 77de 05be eabc ffbe d528 d8be 8401 8abf
00000050: eecf adbd 38c0 163f 0295 32be 5ec1 463e
00000060: 6aa2 853c 98cb cfbe 2de8 f53d 9d50 ec3e
00000070: ef08 ccbd c003 403d 91a6 9f3d f3a3 c53d
00000080: 0f00 c53e 6c6c 983e 3b44 033c 1768 49bb
00000090: 95a7 2f3f 8b2b ac3f 0270 173d 9da1 a63b
0.37451342 0.109109715 1.2892823 0.38276652 0.09019267 0.053926066 0.89446026 0.0077037374
-0.21363236 -9.612325e-05 0.59716153 0.081431456 -0.07291563 0.7085575 0.13319702 0.36521164
-0.13073145 -0.49948817 -0.42218652 -1.0781713 -0.08486925 0.5888705 -0.17439654 0.19409701
0.016312797 -0.40585017 0.12007175 0.46155253 -0.099626414 0.046878576 0.07795442 0.096504115
0.38476607 0.2977022 0.008011873 -0.0030732208 0.68615085 1.3450788 0.036972053 0.005085184

backbone.1.layers.2.bn.running_mean f4 [40]
00000000: a1bf c93e eae7 d8bd 2d2d 2bbf 6925 e9bf
00000010: 2935 6f3e 7b22 cc3e 4c01 9840 89e6 153d
00000020: bbcd 53bf 0400 0000 e8ec 08be 7288 a43e
00000030: 4439 d6c0 90ca 7fbf 5df6 8f3f 8dae d4c0
00000040: a66c 2d3f 0961 883f d9b5 b63f 246b 873f
00000050: d204 1ebe 6dc4 5abf 1b97 aa3e 9edd 8dbf
00000060: 55b4 f93d c107 e73f ccfe 403f 8a43 4d41
00000070: 6c57 ebbd 1a51 333e 28dc d6bd c70f d53b
00000080: ebbe 163f 7449 c6bf 0cfd 1d3e 7fcc 993c
00000090: 6677 273f 5471 32be a7c4 ae3e cdae 933e
0.39404014 -0.10591109 -0.6686581 -1.8214542 0.23360123 0.39870057 4.7501583 0.03659681
-0.82735795 6e-45 -0.13371623 0.3213535 -6.6944904 -0.9991846 1.1247059 -6.6463075
0.6774391 1.0654613 1.4274246 1.0579572 -0.15431526 -0.8545597 0.3331841 -1.1083257
0.12192599 1.8049241 0.7538879 12.828989 -0.11491284 0.17511407 -0.1049121 0.006502125
0.5888507 -1.5491166 0.15428561 0.01877427 0.6541656 -0.17426044 0.3413441 0.288443

backbone.1.layers.2.bn.running_var f4 [40]
00000000: e3e0 1241 00be 803d 24cf 0941 669b 1440
00000010: c5fc c440 4152 433f 4797 7d40 701f 223e
00000020: c802 2f3f 0400 0000 e34b 843e f89d 433f
00000030: 763b d840 dfab a63f b64b 673f 3600 2640
00000040: fb3e c63e c1a3 1a40 7cd1 a040 33a4 813f
00000050: 5c5f 183e 58be a440 1fa6 fd3c 32db bc40
00000060: 66ed 973f 7875 c340 88b8 d33e a4c7 2942
00000070: 3405 563f 1b50 3d3d 9527 933c bbcc da3c
00000080: 152f 7740 f572 873f 6f18 c33d 1ec7 da3d
00000090: 1898 663f 7462 a43f f771 9240 d448 393d
9.179904 0.062862396 8.613071 2.3219848 6.1558557 0.76297385 3.9623582 0.15832305
0.6836362 6e-45 0.25839147 0.76412916 6.7572584 1.3021201 0.903499 2.5937629
0.38719925 2.4162447 5.025572 1.0128235 0.14880127 5.1482353 0.030963002 5.9017572
1.1869323 6.1080894 0.41351724 42.44496 0.8360169 0.046218973 0.01796321 0.026708951
3.8622487 1.0581957 0.09526145 0.1068251 0.90075827 1.2842546 4.5764117 0.04523547
